Main-Project/Run-Model/Graph_Own_0.9.pth (torch, 822400 bytes, 4 tensors)

bias f4 [112]
0	0xbbb81979	-0.005618271
1	0xbbd49f5a	-0.0064887227
2	0xbbd3eaff	-0.0064672227
3	0xbd0ba253	-0.03409035
4	0xbbcfb44b	-0.0063386313
5	0x3cb2b644	0.021815427
6	0x3d5d9e9a	0.054106332
7	0x3ba0d312	0.004907974
8	0x3d895e51	0.067074426
9	0x3cd23a29	0.025662499
10	0xbb2067cd	-0.0024475933
11	0x3d36fda3	0.04467548
12	0x3c9fab79	0.019490944
13	0xba89ae9e	-0.001050431
14	0x3cccc3e2	0.024995748
15	0xbbc1904e	-0.005907095
16	0xbba666f1	-0.0050781895
17	0x3d61ef16	0.05515965
18	0x3d00fccd	0.03149109
19	0x3d9ebb8d	0.07750616
20	0x3cf65934	0.030071832
21	0xbbf874c2	-0.007582278
22	0x3b287319	0.002570337
23	0xbbc4f1cd	-0.00601027
24	0x3b081c25	0.0020768729
25	0xbbdeb4e6	-0.006796467
26	0x3da5eced	0.08101831
27	0x3c1b0613	0.009461897
28	0x3dae4ff5	0.08511344
29	0x3d8afb1f	0.06786179
30	0x3c94ad6b	0.018149098
31	0xbbc58321	-0.0060275947
32	0xbc885704	-0.016643055
33	0xbcb92b60	-0.02260369
34	0x3cee29a8	0.029072598
35	0xbbc00d5f	-0.005860969
36	0x3d00b075	0.031418283
37	0xbbc2f9cd	-0.0059501887
38	0x3d848426	0.06470518
39	0x3e068fba	0.13140765
40	0x3ce78ba4	0.028264828
41	0x3d89cb72	0.06728257
42	0x3c00d87a	0.007864112
43	0xbbc2980c	-0.0059385356
44	0xbbbd6103	-0.005779387
45	0xbc25d233	-0.010120916
46	0xbbe6d872	-0.0070448453
47	0xbb60ef31	-0.0034322257
48	0x3db05652	0.08610214
49	0xbbed672b	-0.0072449646
50	0xbbbfcec6	-0.0058535067
51	0xbc05a805	-0.008157735
52	0x3ce59528	0.028025225
53	0xbbab5b21	-0.0052293693
54	0x3e0e0e9b	0.13872759
55	0xbbc3d9f5	-0.0059769102
56	0xbba721d3	-0.0051004677
57	0x3da0025f	0.07812952
58	0x3a1a8d56	0.00058956945
59	0xbbb62580	-0.0055586696
60	0x3d7d7d32	0.061886974
61	0xbbaa793e	-0.0052024415
62	0xbbc6500c	-0.006052023
63	0x3c95ae00	0.018271446
64	0xbbc66062	-0.00605397
65	0xbbf09f43	-0.007343204
66	0xbbc29792	-0.0059384787
67	0xbbc48143	-0.0059968545
68	0xbc7a5a2c	-0.015280288
69	0x3c51f8b2	0.012815641
70	0x3b1441b9	0.0022622182
71	0x3c046038	0.008079581
72	0xbbd04370	-0.0063556954
73	0x3ddace05	0.10683826
74	0x3ca6001f	0.02026373
75	0xbbc6febe	-0.006072848
76	0x3cc631f0	0.024193734
77	0x3d8073da	0.06272097
78	0x3c301743	0.0107477335
79	0xbb92fdc2	-0.0044858167
80	0x3cfd78d1	0.030941399
81	0x3d5e43e8	0.05426398
82	0xbd03e874	-0.032204106
83	0xbc1a7c36	-0.009429028
84	0xbd6176ee	-0.05504506
85	0x3c8ad731	0.016948314
86	0x3d0e32ae	0.0347163
87	0xbc98b889	-0.01864268
88	0xbc016ba6	-0.007899201
89	0xbb281699	-0.0025648235
90	0x3de6dcae	0.1127256
91	0x3d59d667	0.053182986
92	0x3d4d1c57	0.050075855
93	0x3e26c890	0.16287446
94	0xbb935901	-0.004496694
95	0x3a603a57	0.0008553615
96	0xbbc98a47	-0.006150517
97	0x3c60e18f	0.013725652
98	0x3d28ea68	0.041239172
99	0x3c3142ea	0.010819176
100	0x3e2ce23a	0.16883174
101	0x39fa299d	0.0004771472
102	0xbbc88f82	-0.006120623
103	0x3c96b8d5	0.018398682
104	0xbbce343a	-0.006292847
105	0x3c456955	0.012049039
106	0xbbc97b97	-0.0061487663
107	0xbbe5d3ad	-0.007013759
108	0x3c094271	0.008377657
109	0x394f8ec2	0.0001979424
110	0xbbc10abd	-0.0058911727
111	0x3c1a4d93	0.009417909

weight f4 [112, 1792]
0	0xbd1f6854	-0.038917854
1	0xbd52356a	-0.05132047
2	0x3d035fab	0.032073658
3	0x3bddd477	0.0067697125
4	0xbd3daea5	-0.046309132
5	0xbcb80686	-0.022464048
6	0xbc41b3d3	-0.011822659
7	0xbbd9ccae	-0.006646714
8	0x3cd15825	0.025554726
9	0xbbcc188c	-0.006228512
10	0x3d1d2876	0.038368665
11	0x3d10371b	0.035208803
12	0x3d4e2d01	0.050335888
13	0x3c7422ca	0.0149008725
14	0xbd37f896	-0.044914804
15	0xbc5936f6	-0.013257733
16	0xbd3943af	-0.045230564
17	0x3d63b139	0.055588935
18	0x3d173a70	0.036920965
19	0xbd320145	-0.043458242
20	0x3d49483a	0.049141146
21	0x3d6b346a	0.057423033
22	0x3c5a3914	0.013319273
23	0xbcf0cbcb	-0.029394051
24	0x3b01596a	0.0019737133
25	0xbd538b19	-0.051646326
26	0xbbdb7875	-0.006697709
27	0xbd429407	-0.04750445
28	0x3d7333fe	0.059375755
29	0x3d62a07a	0.055328824
30	0x3cdc46e5	0.026889274
31	0xbcf7385f	-0.030178247
32	0xbd07f42a	-0.033191837
33	0x3d6546e8	0.055975825
34	0xbcf864ec	-0.03032156
35	0xbd3a1f55	-0.045440037
36	0x3b462432	0.0030233976
37	0xbd3db3f1	-0.046314184
38	0x3c9892a8	0.018624619
39	0xba347e6a	-0.0006885292
40	0xbd259912	-0.040429182
41	0xbc1edbe9	-0.009695985
42	0xbd2edd12	-0.042691298
43	0x3d2feaec	0.04294865
44	0xbd3693c8	-0.04457453
45	0xbcc71714	-0.024302997
46	0x3d5d547a	0.05403564
47	0xbd08f3d7	-0.03343567
48	0x3d15e955	0.036599476
49	0x3d158edc	0.036513194
50	0xbd2c55cb	-0.042074006
51	0xbd2f1035	-0.042740066
52	0xbd4cfa07	-0.050043132
53	0x3d124ce5	0.035717864
54	0x3ce5160c	0.027964614
55	0xbd12adcf	-0.035810288
56	0x3c1d206f	0.009590252
57	0xbaa5e44d	-0.001265654
58	0x3c1dfb44	0.009642426
59	0x3c2300f3	0.009948957
60	0xbca55ef0	-0.020186871
61	0xb9f535b0	-0.00046770042
62	0xbca5454d	-0.020174647
63	0x3ab0c30b	0.0013485862
64	0xbd3ed384	-0.046588436
65	0x3c7d61d4	0.015465219
66	0x3c8a2eba	0.016867984
67	0x3cefcd3c	0.029272668
68	0x3d499cca	0.04922179
69	0xbd3f2998	-0.046670526
70	0x3d79c52c	0.060979053
71	0x3d0416c3	0.03224827
72	0x3c7b32c3	0.015331927
73	0x3c57106f	0.013126477
74	0xbbea5140	-0.007150799
75	0x3d6358f6	0.05550476
76	0xbd3892e5	-0.045061965
77	0xbcdba559	-0.026812242
78	0x3cdc86fd	0.026919836
79	0xbd65f006	-0.056137107
80	0xbcfb920c	-0.030709289
81	0x3d04489f	0.03229582
82	0xbd30a098	-0.043121904
83	0x3cb311c8	0.021859065
84	0xbc68718e	-0.01418723
85	0xbd641422	-0.055683263
86	0xbd0c116a	-0.034196295
87	0x3cab70de	0.020927843
88	0xbd483bda	-0.048885204
89	0xbb776b9f	-0.0037753356
90	0xbc31cd82	-0.01085222
91	0x3d7a18eb	0.06105892
92	0xbd4e8c60	-0.05042684
93	0xbc828826	-0.015934061
94	0x3d431c7f	0.047634598
95	0x3d1588e5	0.036507506
96	0x3cb64d8a	0.02225377
97	0x3c853c97	0.016264243
98	0xbd3f5e88	-0.04672101
99	0x3d3c4927	0.0459682
100	0x3d6da1d5	0.058015663
101	0xbbdc8a43	-0.0067303493
102	0xbd1d6c91	-0.038433615
103	0x3c70fd47	0.0147088235
104	0x3d0adac9	0.033900056
105	0xbd20b3f4	-0.039234117
106	0x3d419107	0.04725745
107	0xbc327649	-0.010892459
108	0x3caffc8f	0.021482734
109	0x3bfb1cda	0.0076633515
110	0x3d08915e	0.033341758
111	0xbd79d7e0	-0.06099689
112	0x3c2914f1	0.010319934
113	0x3cf74716	0.030185264
114	0x3b9cbcd6	0.004783253
115	0x3d45ad1c	0.048260793
116	0x3c8081f9	0.015686976
117	0xbd175eb2	-0.036955543
118	0xbd0c6837	-0.034279075
119	0x3bca3be5	0.0061716908
120	0xbc5aac3c	-0.013346728
121	0xbbdaa4ad	-0.006672463
122	0x3cb93d73	0.02261231
123	0xbca79e7b	-0.020461312
124	0x3c3301ab	0.010925691
125	0x3c272363	0.010201308
126	0xbce6ecf8	-0.028189167
127	0x3d33e717	0.043921556
128	0xbd6173dc	-0.055042133
129	0x3d24ef5d	0.040267337
130	0x3cc2289b	0.023701003
131	0xbd2012d0	-0.03908044
132	0x3b8054ec	0.0039163735
133	0x3ce477f2	0.027889226
134	0xbd06cbaf	-0.03290909
135	0xbcc0c329	-0.02353056
136	0x3cfda410	0.03096202
137	0x3c38e71d	0.01128557
138	0x3d74f071	0.059799615
139	0x3c1e4727	0.009660519
140	0x3d488227	0.048952248
141	0xbcbd26ab	-0.023089727
142	0x3d34ccfe	0.04414081
143	0xbd0be13b	-0.034150343
144	0xbcccd61c	-0.025004439
145	0xbd3693a1	-0.044574384
146	0x3d68d0ad	0.056839634
147	0xbc6667fc	-0.014062878
148	0xbd054921	-0.032540444
149	0xbc751576	-0.01495873
150	0x3d5b094f	0.053475674
151	0x3d2f0609	0.042730365
152	0xbb458f61	-0.0030145275
153	0xbcb11cc6	-0.021620166
154	0x3d4701c1	0.048585657
155	0xbbf6f857	-0.0075369286
156	0x3d2dbced	0.0424165
157	0xbd34c6b8	-0.044134825
158	0x3d339404	0.04384233
159	0xbd3d1724	-0.046164647
160	0x3b8f433e	0.0043720296
161	0x3ce6fe7d	0.028197521
162	0x3d3c8143	0.04602171
163	0xbd1b2ca3	-0.037884366
164	0x3b31cfeb	0.0027131985
165	0xbd0b995b	-0.034081798
166	0xbd786aec	-0.060648844
167	0x3c267883	0.010160568
168	0x3ccb870c	0.024844669
169	0xbcd2d13e	-0.02573454
170	0xbc1f4736	-0.009721568
171	0x3d272828	0.04080978
172	0x3d310a96	0.043222986
173	0xbb00b197	-0.0019637102
174	0xbb9a7dd0	-0.004714705
175	0x3d7becef	0.061505254
176	0x3b48116c	0.0030527962
177	0xbd1871e9	-0.03721801
178	0xbc920ff2	-0.017829869
179	0x3cc021ae	0.02345356
180	0xbce2e9bc	-0.027699344
181	0xbd38addc	-0.04508768
182	0xbca0b060	-0.019615352
183	0xbc9de1f4	-0.019272782
184	0xbbac540b	-0.005259042
185	0x3cd6f145	0.026238093
186	0x3d11d0e0	0.03559959
187	0xbd5181b3	-0.05114908
188	0xbcec6820	-0.028858244
189	0xbd3c1ec4	-0.045927778
190	0xbba81be6	-0.005130279
191	0xbcd2cded	-0.025732959
192	0xbc9d87f6	-0.01922987
193	0x3d2dbc00	0.04241562
194	0xbd429524	-0.047505513
195	0x3be5590e	0.0069991415
196	0xbcde89e7	-0.027165366
197	0xbd29f833	-0.041496467
198	0xbd3861c2	-0.045015104
199	0x3c3fcd76	0.011706701
200	0xbcdbcc60	-0.026830852
201	0x3cc3ea7e	0.023915526
202	0xbd229155	-0.03968938
203	0x3d370dc0	0.044690847
204	0x3d5d50dc	0.05403219
205	0xbd052f3f	-0.03251576
206	0x3d09faa5	0.0336863
207	0x3d32f5e2	0.043691523
208	0xbc8762a2	-0.016526524
209	0xbc3b9ee6	-0.011451459
210	0xbcb7aa4e	-0.022420075
211	0x3c235281	0.009968401
212	0x3d3b0e07	0.045667674
213	0x3d669805	0.05629732
214	0xbd545678	-0.051840276
215	0xbb75f73a	-0.0037531392
216	0x3d3998cf	0.045311745
217	0xbd40dbe3	-0.0470847
218	0xbc358036	-0.011077931
219	0x3d3544a6	0.04425492
220	0xbc2ae5a3	-0.010430726
221	0xbd0c50c5	-0.034256715
222	0xbd4e0c39	-0.050304625
223	0x3d1aa646	0.037756227
224	0x3cb2e797	0.021838946
225	0x3beca251	0.007221498
226	0xbce3d4fd	-0.027811522
227	0x3d03e1c2	0.03219772
228	0xbd16caad	-0.03681438
229	0xbca070c9	-0.01958503
230	0x3cf047b5	0.029331068
231	0x3ca1dc48	0.019758359
232	0xbcb5a3bc	-0.022172801
233	0x3c27ca61	0.010241122
234	0xbd0426b8	-0.032263488
235	0x3d4db60b	0.050222438
236	0xbcf706c1	-0.030154588
237	0x3d284be4	0.041088
238	0xbb25d9c9	-0.0025306812
239	0xbd1223c6	-0.035678647
240	0x3c33308f	0.01093687
241	0x3d3e6407	0.046482112
242	0xbc86db48	-0.016461983
243	0x3bd53639	0.006506708
244	0xbcccad7a	-0.024985064
245	0x3d2e2875	0.04251905
246	0xbd2370f2	-0.039902635
247	0xbd35f7c5	-0.044425745
248	0xbd18d1d5	-0.037309486
249	0xbd2686f9	-0.040656064
250	0xbc2fa388	-0.010720141
251	0x3d3a5a68	0.045496374
252	0xbcfcd82a	-0.030864794
253	0xbd481e89	-0.048857246
254	0xbd4a4863	-0.04938544
255	0x3b90ad8b	0.004415219

bias f4 [28]
0	0x3b6459fb	0.0034843672
1	0xbcc6cc1a	-0.024267245
2	0x3bb46f41	0.0055064266
3	0x3cf4b558	0.029871628
4	0x3d11f692	0.03563554
5	0xbce8b06f	-0.028404443
6	0x3c956373	0.018235898
7	0xbd12848c	-0.035770938
8	0xbc47489d	-0.012163308
9	0x3c9ea724	0.019366808
10	0x3c054d89	0.008136162
11	0x3c9660ab	0.018356642
12	0x3dcd9590	0.100382924
13	0xbbc946ea	-0.006142487
14	0x3d0f4754	0.034980133
15	0x3b5d9b49	0.003381448
16	0x3cfaedb3	0.030630922
17	0x3d45a6d5	0.048254807
18	0xbba4ddb5	-0.0050313124
19	0xbab5cab9	-0.001386962
20	0x3c98033c	0.01855623
21	0x3d2d5332	0.04231567
22	0x3b555030	0.0032549016
23	0x3c65324e	0.013989044
24	0xbcdd25f8	-0.026995644
25	0x3cebc0b4	0.028778411
26	0x3b4fa457	0.0031683648
27	0xbccd4abe	-0.025060054

weight f4 [28, 112]
0	0x3e0753ab	0.1321551
1	0x3d574230	0.052553356
2	0x3e4c8bdd	0.19975229
3	0xbc8f8f20	-0.017524302
4	0x3d0d11fb	0.034440976
5	0x3def3cb9	0.11681504
6	0xbe5d3859	-0.21603526
7	0xbd89f4d7	-0.067361526
8	0x3e8d5afc	0.27608478
9	0x3d8f6848	0.07002312
10	0xbedd64fe	-0.43241113
11	0xbecc55a7	-0.39909098
12	0x3d98e3aa	0.074652985
13	0xbdb66b35	-0.08907167
14	0x3e00146b	0.12507789
15	0x3c8c1571	0.017100068
16	0x3d963fac	0.07336363
17	0x3e415b40	0.18882465
18	0xbe134ab2	-0.14383963
19	0xbea9ca8f	-0.33162352
20	0x3d9f7b88	0.077872336
21	0xbdd8d0b6	-0.105866835
22	0x3c8d94d1	0.017282875
23	0x3cfafca3	0.030638045
24	0xbe452247	-0.19251357
25	0xbe26057e	-0.16213033
26	0xbcbaee7d	-0.022818798
27	0x3e08cc50	0.13359189
28	0x3e8deb27	0.2771847
29	0x3e0bce69	0.13652958
30	0xbc408536	-0.01175051
31	0x3e2e16ca	0.17000881
32	0xbe058f68	-0.13042986
33	0xbe11afcb	-0.14227216
34	0xbe2de691	-0.16982485
35	0x3d8bfe5f	0.06835627
36	0x3e8d7dff	0.2763519
37	0xbc4784e7	-0.0121776825
38	0x3dc12355	0.09430567
39	0xbeafb94d	-0.3432106
40	0x3e441371	0.19148041
41	0x3dcce340	0.10004282
42	0x3d8a68ed	0.06758294
43	0xbdba5c06	-0.09099583
44	0x3dc73187	0.097262435
45	0xbe40290a	-0.18765655
46	0x3e260df0	0.16216254
47	0xbe3282cf	-0.17432712
48	0xbe5ab237	-0.21357046
49	0xbe244238	-0.16040885
50	0x3d723e0c	0.059141204
51	0xbdc7c716	-0.097547695
52	0xbe89058f	-0.26762053
53	0xbbdc4b01	-0.0067228083
54	0x3ecc4f58	0.39904284
55	0xbdd21fe1	-0.10259987
56	0x3e45cf09	0.19317259
57	0x3d58c7f4	0.052925065
58	0xbdd87aa5	-0.105702676
59	0xbdc1635a	-0.09442778
60	0x3ece0486	0.40237826
61	0x3d1e0972	0.038583227
62	0x3e00e251	0.12586333
63	0x3e39c5a0	0.18141794
64	0xbe1fa1bc	-0.1558904
65	0x3e0dba89	0.13840689
66	0x3c9d77b4	0.019222118
67	0x3ce1e97b	0.027577152
68	0x3c62242f	0.013802572
69	0xbe2c9ab2	-0.16855887
70	0x3cebc548	0.028780594
71	0xbe03f304	-0.12885672
72	0xbe3b16ab	-0.18270366
73	0x3eb1455a	0.34623224
74	0xbe920888	-0.28522134
75	0x3e3df61d	0.18550916
76	0x3dcdb61a	0.10044499
77	0x3e5c763c	0.21529478
78	0xbeb95749	-0.36199406
79	0xbdb9ece4	-0.090783864
80	0x3c83e715	0.0161014
81	0x3d834385	0.06409363
82	0xbd78527a	-0.06062553
83	0xbe57cbe4	-0.21073872
84	0xbc813478	-0.01577209
85	0xbc2e5ef0	-0.010642752
86	0x3e467619	0.19380988
87	0x3e0edd05	0.139515
88	0x3e185181	0.14874841
89	0xbe3414a9	-0.17586006
90	0x3eb06fe6	0.34460372
91	0xbd8d5b49	-0.06902177
92	0x3e08bbcc	0.13352889
93	0xbe9d0ad1	-0.30672315
94	0x3cdccf58	0.026954338
95	0xbeb03057	-0.3441188
96	0xbe17a321	-0.14808322
97	0xbc9b02fe	-0.018922325
98	0xbe2672e6	-0.16254768
99	0x3c7deed7	0.015498838
100	0x3e36a0ae	0.17834732
101	0x3d840a48	0.064472735
102	0xbdd5b306	-0.10434537
103	0x3dbfdc1b	0.09368154
104	0xbdb5b24d	-0.08871899
105	0xbe0b5610	-0.13607049
106	0x3e07d10c	0.13263339
107	0x3d99cbf3	0.07509603
108	0xbdd367fd	-0.103225686
109	0xbd838bf8	-0.06423181
110	0x3e3622de	0.17786738
111	0x3e0bcc3e	0.13652131
112	0xbc15c02b	-0.009140055
113	0xbdcb2062	-0.09918286
114	0xbcb83314	-0.022485293
115	0x3c4f262b	0.012643377
116	0x3dc00d23	0.09377506
117	0x3e64fa46	0.22361097
118	0xbd7f40c6	-0.062317632
119	0xbe937147	-0.2879736
120	0x3da79352	0.08182396
121	0xbe09b919	-0.13449515
122	0xbeb63d17	-0.35593483
123	0xbda41d3a	-0.08013387
124	0xbe805d16	-0.2507102
125	0xbda57be9	-0.080802746
126	0x3e8d347c	0.27579105
127	0x3dc50fe9	0.09622175
128	0x3b87e61a	0.0041473033
129	0x3e124645	0.14284618
130	0xbe3d5641	-0.18489935
131	0xbe895607	-0.26823446
132	0x3ea3d022	0.3199473
133	0xbe4c1f85	-0.19933899
134	0xbecf2f45	-0.4046575
135	0xbe523e86	-0.20531663
136	0x3cb55fb0	0.022140354
137	0xbdf6a437	-0.1204304
138	0x3d92ff74	0.0717763
139	0xbdf2a04b	-0.1184698
140	0x3e375981	0.17905237
141	0xbe1fb515	-0.15596421
142	0x3dc547de	0.09632848
143	0x3ce6221c	0.028092436
144	0xbced1f7e	-0.02894568
145	0xbe2805f3	-0.1640852
146	0xbe068b39	-0.13139047
147	0x3e3ff6f6	0.18746552
148	0x3e0cba09	0.13742842
149	0xbe157649	-0.14595903
150	0x3e9413f2	0.28921467
151	0xbe8a6fdd	-0.2703847
152	0x3ebf44ee	0.37357277
153	0xbe85f70b	-0.2616504
154	0x3e2a2df7	0.16619097
155	0x3e21fc1b	0.15818827
156	0x3d4429e6	0.04789152
157	0x3dea19f9	0.11430735
158	0x3dffb394	0.12485424
159	0xbe623663	-0.2209106
160	0x3e3df5e0	0.18550825
161	0x3d51dda1	0.051236752
162	0x3df13a68	0.11778718
163	0x3d55a77f	0.05216169
164	0x3c5ca053	0.013465959
165	0x3da563fe	0.080757126
166	0x3e53f5d5	0.20699246
167	0x3e35f64b	0.17769735
168	0x3e1740c5	0.14770801
169	0x3b3aec57	0.0028522217
170	0x3d93fdde	0.07226156
171	0xbdd634c1	-0.10459281
172	0x3e9100c7	0.28320906
173	0x3e4aa0a6	0.19787845
174	0xbda0e5f8	-0.07856363
175	0xbdf8b525	-0.121439256
176	0xbc904365	-0.017610261
177	0x3d5d838b	0.054080527
178	0xbd8fd158	-0.07022351
179	0x3e4494a6	0.1919733
180	0x3e9ef1f1	0.31043962
181	0x3e2bdbe4	0.167831
182	0xbe327df3	-0.17430858
183	0xbe96041b	-0.29300007
184	0xbe5207af	-0.20510744
185	0x3ed9fe5a	0.42576867
186	0x3e8af058	0.27136493
187	0xbc0eb1fd	-0.008709428
188	0x3e37725c	0.17914718
189	0x3e24a6cf	0.16079257
190	0xbd535c1a	-0.051601507
191	0xbd70f984	-0.058831707
192	0x3dbcaa66	0.092121884
193	0x3d4cfcf9	0.05004594
194	0xbecf36ba	-0.4047144
195	0xbe240bb2	-0.16020086
196	0x3bcf6f1e	0.006330385
197	0xbdb06c7d	-0.086144425
198	0x3e572a4f	0.21012233
199	0x3e174795	0.147734
200	0x3d2e3a00	0.04253578
201	0x3e2354be	0.15950295
202	0x3eaacdd8	0.3336017
203	0xbd621aea	-0.05520145
204	0x3d9cb4c0	0.07651663
205	0x3c8a8861	0.016910734
206	0x3e2cc17a	0.1687068
207	0xbed9b33b	-0.42519554
208	0xbe4d68a5	-0.2005945
209	0x3e6fd107	0.23419581
210	0xbe0aeea7	-0.13567601
211	0x3d4e6508	0.05038932
212	0x3e7e1998	0.2481445
213	0xbcb6c7b0	-0.022312015
214	0x3e10da7c	0.14145845
215	0xbd856fc5	-0.06515459
216	0x3d9233ae	0.07138763
217	0xbdfb00fa	-0.12256046
218	0x3cc4cdb1	0.024023863
219	0xbdcea7f6	-0.1009063
220	0x3dc21cb2	0.094781294
221	0xbe90caf9	-0.28279856
222	0xbe152c96	-0.1456779
223	0x3dea3576	0.11435978
224	0x3e06c0f0	0.13159537
225	0xbd99ae79	-0.07503981
226	0x3e06ea15	0.13175233
227	0xbda6b926	-0.08140783
228	0x3d9148f5	0.070939936
229	0xbe0e85e0	-0.13918257
230	0x3eaed5f2	0.34147602
231	0x3ec5d12f	0.38636157
232	0xbe1cf081	-0.1532612
233	0xbe0e178c	-0.1387617
234	0x3ee4f0c8	0.44714952
235	0x3e0b2270	0.13587356
236	0x3d5553e8	0.052081972
237	0x3d132e36	0.035932742
238	0xbdc2e712	-0.095167294
239	0xbded3231	-0.11581839
240	0xbd87844f	-0.06617033
241	0x3e81a95f	0.25324532
242	0xbe2d3ef7	-0.1691855
243	0xbe6dfcbe	-0.23240945
244	0x3dbfc636	0.093639776
245	0xbe732fd9	-0.23748721
246	0x3eb28496	0.3486678
247	0xbe165354	-0.14680225
248	0x3e2c9f7a	0.1685771
249	0x3e4b74e3	0.19868807
250	0xbed8dc96	-0.42355794
251	0x3d12391f	0.035699006
252	0x3e0fedae	0.14055511
253	0xbeb787ff	-0.35845944
254	0x3e121a62	0.14267877
255	0x3dfdfaed	0.12401376
