Make-Prediction/Graph_Own_0.05_model.pth (torch, 822456 bytes, 4 tensors)

bias f4 [112]
00000000: 0efe a73c 6ac0 b6bb e79e 3abb 0a98 473b
00000010: 7c53 88bb 6a2e 2a3c da46 95bb 9f6f 89bd
00000020: 6d28 97bb 1d08 a7bb 6bfa 3abb 7424 84bd
00000030: 6724 3bbb 2091 e8bc 1020 bcbb 9b81 92bb
00000040: a7b2 37bc 20bf edbb 3cbe f53b ab2d 21bc
00000050: e188 c2bb 6e10 c4bb 2d4b 273e d734 aebb
00000060: 3d30 aebb 385d 36bb fa5d db3b 5fe9 823d
00000070: aab4 1cbc 46a8 66bb 246a c339 b828 3f3c
00000080: 6c05 4dbd 38e5 75ba f824 f2bc ebb6 8fbb
00000090: a581 73bb 6fbc 71bb 8e27 f4bc 4423 bfbb
000000a0: d34f f3bb c54c cfbb de93 f3bb a4a8 c0bb
000000b0: c987 a9bb fd0b e2bb 1486 06bc c9b1 7c3c
000000c0: 2c6f 2c3d 354a fcbb a39c bbbc d509 90bb
000000d0: 0647 d4bb c663 7fba b0f8 493e 01d2 783d
000000e0: b4dc 14bc 5a47 15bb 83b1 0e3e f21d 61bb
000000f0: b9e8 00bb 0dfc bebb 1ad7 c2bb 4fde 33bb
00000100: 8494 b3bb 9233 6d3e fce5 c2bb d8e9 f5bb
00000110: 802c 853d eecd c33d 451e 21bc 3a0e ab3d
00000120: 8c35 60bb 49ef cbbb 93f1 4bbb e853 acbb
00000130: 73a0 403b 9e39 00bc 4680 cdbb d542 c2bb
00000140: 30bd cebb 47db f63c cc9c fabb f528 b9bb
00000150: f1df 023d 5e81 7bbb 707d fdbb b8d4 bfbb
00000160: ed75 babb c3aa babb 789e b4bb 0781 b9bb
00000170: 58d0 fdbb 5631 cebb 6720 28bc a68e 61bb
00000180: cfaf 7abb 6e83 11bd 5312 1cbc 510d c6bb
00000190: fb82 ed3c 339e 0f3e 70d1 dbbb a0d0 25bd
000001a0: 06b1 18bb 8b7d cebb 8006 ccbb e551 1cbc
000001b0: 08c6 babb e011 8e3c a21b 89bb bd79 bbba
0.020506885 -0.0055771368 -0.002847606 0.0030455613 -0.0041603427 0.010387043 -0.0045555653 -0.06710743
-0.0046129734 -0.0050974027 -0.0028530608 -0.064522654 -0.0028555633 -0.028389513 -0.005741127 -0.0044710166
-0.011212028 -0.00725545 0.0074994843 -0.009837548 -0.0059367274 -0.005983404 0.16337271 -0.0053163576
-0.005315809 -0.0027826559 0.0066945525 0.06392168 -0.009564558 -0.0035195514 0.0003727238 0.011667423
-0.050054 -0.00093801646 -0.029558644 -0.004385819 -0.0037156132 -0.0036885997 -0.029804017 -0.0058330614
-0.0074252873 -0.0063262903 -0.0074333986 -0.0058794785 -0.0051736576 -0.006898402 -0.008210678 0.015423247
0.04209821 -0.007699276 -0.022901839 -0.0043957033 -0.006478193 -0.00097423454 0.19723773 0.06074715
-0.009085823 -0.0022778125 0.13934903 -0.0034350124 -0.0019669964 -0.0058283866 -0.0059460523 -0.0027445739
-0.005480351 0.23164204 -0.0059478264 -0.007504683 0.06502628 0.09560762 -0.009833877 0.08352323
-0.0034211604 -0.0062235934 -0.0031119331 -0.005259026 0.002939251 -0.007826237 -0.006271395 -0.005928377
-0.006309174 0.030133856 -0.007648086 -0.0056506344 0.03195185 -0.003837667 -0.0077359006 -0.0058542155
-0.0056903274 -0.005696626 -0.005512055 -0.005661133 -0.007745784 -0.0062925024 -0.010261632 -0.00344173
-0.0038251763 -0.03552573 -0.009525853 -0.006044068 0.02899312 0.14025192 -0.0067083165 -0.040482163
-0.0023298874 -0.006301587 -0.006226361 -0.00954101 -0.0056998767 0.017342508 -0.0041842023 -0.0014303249

weight f4 [112, 1792]
00000000: bcec 87bc cf8e 33bd 4027 283c a127 1c3d
00000010: af1e bbbc 599a 103d 44ee 703c fda3 193d
00000020: c319 643c 03ec f73b 38ce e9bb fd7a 97bc
00000030: 8f20 b9bc 0d0d 313d 3749 243d 4358 a6bc
00000040: 62af 453d aa3b 633d c761 2c3a cf73 473c
00000050: 4797 6a3d 5c41 cbbc 15cf 123c 1270 013d
00000060: dc92 153b 149e 2ebd 3edf d73c 53db 6a3b
00000070: 47cb a1bc d542 143d 2216 6d3c c730 fdbc
00000080: 1a80 5ebd b301 703d c175 0dbd 1bea 39bd
00000090: 5e18 493d 1596 e0bc a491 ee3c bb0e b1bb
000000a0: 0599 3c3c 6019 96bc a4d6 603d 24d9 3c3b
000000b0: 4096 40bc 5643 ecbb efb2 cfbc f0f4 07bd
000000c0: e41f 193d 4c30 093d a1d0 343d 955f 70bd
000000d0: f205 2cbd 27c7 18bd 739f 08bc 1040 183b
000000e0: 6dd2 61bd ffd6 923c 9c28 ad3c f7b2 e0bc
000000f0: bdfd 2d3d 5c5d 6a3d d8de 4dbc a960 0d3d
00000100: 21e2 eb3c 6c46 ab3b 09bc 08bd 5ca0 813d
00000110: 97e6 163c a782 943c 081b a03c 6e85 3f3c
00000120: 7a28 14bd 086d 853c 51a3 043d edb7 6cbc
00000130: 83cc 2cbc f63b 05bc ee49 933a dc2a 943b
00000140: d2ce 013d 46cc c2bb 19e4 58bd 1488 523d
00000150: f9c0 48bc 56c2 ce3c ceb0 fc3c 5965 5e3d
00000160: 8e83 623d 8bb7 673c 722a d93c 7103 383b
00000170: 7948 95bc fe7b ea3c acf8 8fbc c505 a2bb
00000180: 266e 03bd 7ef0 af3c 0cca 47bd 807f 32bd
00000190: 8e31 673a 417e 053d 17a9 59bd e771 473d
000001a0: 57a2 53bd c53f 313d 6244 29bc 4704 323c
000001b0: 5070 513d d326 093c d739 89bb a6b2 b13c
000001c0: ec4f 81bc ab31 713a e188 e63c 197f a53b
000001d0: 9589 4bbc 04be 14bd 861b 0abd b117 32bd
000001e0: b917 1ebd bca7 0e3d 29ea f9bc 3415 dd3c
000001f0: c0e8 123d bd2a f2bb a13f cc3c 5d72 173d
00000200: 0835 553d a2f0 163d b254 1dbd f3ca 2fbd
00000210: 21ef 2139 11b9 1b3d 7c85 5a3d 0ecf dabc
00000220: 90e7 23bd 6d06 9abb 5ce5 e83c eab4 9e3c
00000230: 95ab 673d 8b69 43bc 0b70 423d d73a 983c
00000240: acc3 e23c 72fd 943c 641d 143d be09 813b
00000250: f3a7 293d f6c1 793d 5b38 fabc 73bf 1bbd
00000260: 8190 083d 40ec 16bd b6bb 173d 3e79 b7bc
00000270: dc0a cf3c 44d1 643d 8f95 c9bb 3bc0 963c
00000280: e6e7 213d e496 16bd 1c41 5bbd e836 43bd
00000290: af2d d7bc 988c 0d3d cd00 df3c 3fee 433d
000002a0: 0b0c 2abc c4a9 22bd 178e 303d 79a1 653d
000002b0: d2be d23c c952 24bd 716a af3d 172c b8bc
000002c0: 5677 23bd 3fa4 ffbb e45d 903c a210 573c
000002d0: ea4d d5bb 8e47 263d 9266 86bc a84e 3fbd
000002e0: d877 0abd 1f9c 2d3c 702c e03b 7f82 793c
000002f0: 81cc 31bc ffdb 093d 753a db3b 0279 51bd
00000300: aeec d4bc 4871 693b d8be 4dbc bf19 d0bc
00000310: 62ea 27bd 3492 8abc b334 023c c860 b8bc
00000320: 6e4d e33c 5492 783b 558e 87bc 35f0 003d
00000330: 55ce ae3c f592 28bd a5e2 5f3d 77b9 81bb
00000340: 395d 293d ca04 00bd 18c0 7ebb 8133 4a3c
00000350: eac8 633c f062 32bd 9502 2dbc afea f03b
00000360: 8c17 953c 5793 ed3c e29f 9bbc e786 56bc
00000370: 3035 e53c b931 52bb 077f 1abd e604 383d
00000380: 8c97 22bd f773 50bd 60f1 ee3b 68d9 3e3d
00000390: 0454 f8bb 0e64 163d f0c4 9f3c 3b7d 313d
000003a0: ff5b 1c3d c2bd 82bc 9f3e 81bc 0706 3e3c
000003b0: 0f9d e2bc 366c 27bd ed37 51bd 4811 2abb
000003c0: 4b6c f6bc c8c8 e1bc 0079 d5bb d961 b7b9
000003d0: 21b4 b4bc aada a1bc 3358 cc3c dbb5 103d
000003e0: 93eb 4abd 930d 5dbc 4280 fc3c bac4 50bd
000003f0: c6ea 38bd 708e d5bb 60a0 5c3d 6508 c33c
-0.016592376 -0.043837365 0.010263264 0.03812373 -0.02284178 0.035303447 0.014705244 0.037509907
0.013922158 0.0075659766 -0.007135179 -0.018491263 -0.022598533 0.043225337 0.040108886 -0.020305758
0.04826296 0.055476822 0.0006575849 0.012173607 0.057273176 -0.02481144 0.008960505 0.03160102
0.002282313 -0.042631224 0.026351567 0.0035836294 -0.01975025 0.03619655 0.014470609 -0.030907048
-0.054321386 0.05859537 -0.034536127 -0.045389276 0.049095504 -0.027415315 0.029122181 -0.0054033673
0.011511092 -0.018322647 0.054892197 0.002881595 -0.011754572 -0.0072101755 -0.025353877 -0.033192575
0.03738393 0.033493325 0.044144277 -0.058684904 -0.041997857 -0.0372993 -0.008338797 0.0023231544
-0.05513232 0.017924784 0.021137528 -0.027429087 0.04247831 0.05721794 -0.012565337 0.03451601
0.02879435 0.005226901 -0.03338245 0.06329414 0.00921025 0.018128706 0.01954414 0.011689527
-0.036171414 0.016287342 0.032382313 -0.014448148 -0.010546806 -0.008131972 0.0011237243 0.004521711
0.03169138 -0.0059447614 -0.052951906 0.051399305 -0.0122530395 0.025239151 0.030846026 0.05429587
0.05530124 0.014142881 0.026509497 0.0028078223 -0.018223034 0.028623577 -0.01757463 -0.0049445354
-0.032087468 0.02147698 -0.04877667 -0.043578625 0.0008819335 0.03259111 -0.053139772 0.04869261
-0.05166849 0.043273706 -0.010331245 0.010865278 0.0511325 0.008371073 -0.0041878032 0.021691632
-0.01578518 0.00092008215 0.02814144 0.0050505516 -0.012422939 -0.036314026 -0.033717655 -0.043479625
-0.038596842 0.034827933 -0.030507164 0.02698765 0.0358665 -0.0073903487 0.024932684 0.0369743
0.052052528 0.03685058 -0.03841085 -0.042918157 0.00015443239 0.03801829 0.053349957 -0.02671006
-0.040015757 -0.004700473 0.02842968 0.019373376 0.056560118 -0.011927019 0.047470134 0.018582745
0.027681194 0.018187258 0.03616084 0.003937929 0.041419934 0.06097599 -0.03054445 -0.038024377
0.033340935 -0.0368464 0.03704425 -0.02239668 0.025273733 0.055863634 -0.006151862 0.01840221
0.039527796 -0.036764994 -0.05352889 -0.047659785 -0.0262669 0.03455791 0.027222062 0.04783463
-0.010378848 -0.039712682 0.043104257 0.056062195 0.025725756 -0.040118013 0.08565224 -0.022481961
-0.03990873 -0.007801562 0.017622896 0.013126524 -0.006509532 0.040595584 -0.016406331 -0.04670587
-0.0338057 0.010596304 0.006841235 0.015228867 -0.01085198 0.03365707 0.006690318 -0.051140793
-0.025991764 0.00356205 -0.012557708 -0.025402902 -0.04099501 -0.016915418 0.007947135 -0.022507086
0.027746882 0.0037929015 -0.016547361 0.03147908 0.021338621 -0.041155774 0.054659504 -0.0039588767
0.04134867 -0.031254567 -0.003887182 0.012341381 0.013902882 -0.043551385 -0.010559698 0.007352195
0.018199705 0.029000921 -0.018997137 -0.013093687 0.027979463 -0.0032073094 -0.0377188 0.044926547
-0.039695308 -0.050891843 0.0072919577 0.046594054 -0.007578375 0.036716513 0.019503087 0.04333232
0.03817367 -0.015959624 -0.01577693 0.011598117 -0.027662782 -0.040874682 -0.051078726 -0.0025950242
-0.030080935 -0.02756156 -0.0065146685 -0.00034977382 -0.022058548 -0.019757587 0.0249444 0.03532968
-0.049541067 -0.013492006 0.030822877 -0.050968863 -0.045145772 -0.006517224 0.053863883 0.023807714

bias f4 [28]
00000000: 28c0 ffbc c471 463d bac3 9c3c afff d03d
00000010: c1b4 5b3e 84e6 fabc a94a 98bd 7cf8 9d3d
00000020: e315 90bd 0bb2 bb3d de68 cc3c 4f4a 063e
00000030: 0108 2ebc c0f2 313e e070 583d 1d70 d8bd
00000040: 525d 103e e3b5 33be d828 6fbd f218 0e3e
00000050: aad8 fe3d ee3a 93be 580e 1fbe adae 26be
00000060: 70d9 d8bd 394f d9bc 1592 1abe a9f3 963e
-0.031219557 0.04844834 0.019136298 0.10205018 0.21455671 -0.030627497 -0.07436115 0.0771341
-0.070354246 0.091648184 0.024952348 0.13114284 -0.0106220255 0.17377758 0.05284202 -0.10568259
0.14098099 -0.17549853 -0.05838856 0.13876703 0.12443669 -0.28755897 -0.15532815 -0.16277571
-0.10588348 -0.026527034 -0.15094788 0.29482773

weight f4 [28, 112]
00000000: 4717 e0bd 187d fcbd 442d 3bbe e95d d8bd
00000010: b0b8 343e 1f3f 6cbe cee7 6abb e9c3 2cbe
00000020: 5890 1e3e 380a 303e 551b bbbd e409 ecbd
00000030: 01df b83d cf34 10bc f4fe 39be dd34 c8bc
00000040: 7372 62bc 78a4 a73d 4fde 513e 7f6e 5b3e
00000050: c440 2d3d 346e 27be 6f88 ecbd a15f 13be
00000060: 5de4 43bd e252 373d 3ea0 5d3e ff0f 1fbe
00000070: 1054 073d 276d a23d 1a97 efbe 444b f83d
00000080: 3f63 9c3c e7e8 083e 4797 b43d 8beb 97bd
00000090: aba5 88bd 014c 0d3d fce2 69be c6a8 06be
000000a0: 4a57 c83d cf95 d83d 4fb7 03be 3992 3e3e
000000b0: fe89 b8bc cb88 02be 51c7 023d 153c 63bd
000000c0: b6dc 703e d0e8 c9bd f17b 2fbe 9578 833d
000000d0: d35a 45be e69c cb3d 39fc bd3e d335 f33d
000000e0: 6f16 8b3d 4f85 353e 5fdb 6bbe 22de 573e
000000f0: 748d ea3d a75e bf3d cdb1 ef3d 0253 eb3d
00000100: 5104 693d 2aaa 053e 8a38 f0bd 717f 6c3d
00000110: ed23 43be 082a d8be 6ddc 38be c12a 423e
00000120: 4b70 ec3d 9e33 88bc b6a8 eebd 42a3 7fbc
00000130: 11ca 273e d5c0 16bd 5701 3dbd b328 34be
00000140: f047 143e 8b8f 16be f2cd 6d3e bcb3 f03c
00000150: 241b edbd 4efa 2cbc 6a10 46be 5834 5bbd
00000160: 7414 fe3d 2005 00be 437c 36be 66b8 33be
00000170: d754 42be 6c82 47be e371 4cbe 187f 40be
00000180: c415 c43d 92f3 7ebe 6967 713d 1c32 f73c
00000190: 4ac3 c43d 532e 86bc 7070 023e 5bec c13c
000001a0: 0c5c d3bd a71b 48be 9605 8c3b dd51 8bbd
000001b0: 7d92 2abe fdfb 35be 45c2 2dbd e2ef 9ebd
000001c0: d1ac b9bb a902 20bd ddda f5bd c9d8 d73d
000001d0: 86d4 62be a3a2 063d d692 59bc 537b 67be
000001e0: 327b 4abc 741b 3cbe 2e72 eabd 43ce 5ebe
000001f0: 7fef 403e 266b 5ebe 3f9d 1bbe 144f 23be
00000200: f720 0b3e 579a 2f3e 0169 3abe 9a87 46bd
00000210: 1255 d7bd 7bae 3abe 5e60 67be 3f96 413e
00000220: 8ac9 08be 5544 f6bc b6ac f73b 3b67 ac3e
00000230: 20c3 a4bd 5413 e73d 9baa 2ebe a7e4 9c3b
00000240: 6d16 9a3c fb87 cd3c d0cc df3d ea0f e9bc
00000250: bfe4 243e 54ac 443c 9894 2dbe 1a24 a3bc
00000260: 5416 94bd 66a2 293e cba1 fd3d 62c3 4e3d
00000270: 6631 af3d e0e0 063e fd65 25be 38b8 91bc
00000280: 87c5 4b3e c70c 1e3d 9376 163e 4201 fcbd
00000290: ea42 113e d2db 363d 16a9 a73e 0e57 343e
000002a0: 877d d73d fc5d f43d de7b 9f3e f903 3a3e
000002b0: b207 143e 73b9 153e d6b6 34bd 9012 44be
000002c0: 6f23 3fbe d093 c5bd 0df2 5ebd 1f86 cbbc
000002d0: 0067 c4bd c1d2 503d ee51 1ebe e885 ae3d
000002e0: a40a 33bc d08d f4bd 9c76 423e 9a67 f53d
000002f0: a790 763d 46f1 9fbd 19d6 80bd 6013 5ebd
00000300: 4a25 0bbd 52ca d13a 05ec 363d ab60 6abd
00000310: fb71 283e 5b52 753d ffc4 4abd ea9e 383e
00000320: 9bcb 873c f3a6 123d 32e8 113e 445c 343d
00000330: 2e91 273e 6180 8f3c 7b95 753d 3d5d 3fbe
00000340: 0085 9dbd 417b 5dbe 5d48 053d 9a00 4c3c
00000350: 3b54 23be 828b 4a3e 6c25 25be b53d d33d
00000360: 3c84 2a3e 9a42 05bd b9d6 84bd b86c b4bd
00000370: d406 203e b178 4c3e 1cb3 0f3e 9fab a43d
00000380: 9194 073e ab55 9fbd 8b90 15bd 807b c3bd
00000390: bdd2 ccbc 74aa 26bd 83d5 523d 7601 603e
000003a0: 2a03 14bc 79ab 863d ab7a 12be 04cf a13d
000003b0: c92e 623c 7b0c 583e 78c6 3a3e 58df 4cbe
000003c0: 85ab 25bc a83d 9ebd 118a 1dbe d7d4 22be
000003d0: 4a48 be3d 33e7 303c ec89 d13e 6d5d f03d
000003e0: cc49 9dbd 9949 2b3e e61c 983b 6fc7 5bbe
000003f0: b0ee 45be 3d7b c23d d3d4 223e 35b7 4cbe
-0.1094194 -0.12328547 -0.18278986 -0.10564787 0.17648578 -0.23070954 -0.0035843733 -0.16871609
0.1548475 0.17191398 -0.091360725 -0.11525324 0.090269096 -0.008801653 -0.18163663 -0.02443927
-0.013821232 0.08185667 0.2049496 0.2142887 0.042298093 -0.16350633 -0.1154946 -0.14391948
-0.047825206 0.044756778 0.21643159 -0.15533446 0.033039153 0.079309754 -0.4679497 0.12123731
0.019090293 0.13370095 0.08817916 -0.07417973 -0.06672224 0.03449631 -0.22840494 -0.1315032
0.09782274 0.10575449 -0.12862895 0.18610467 -0.022526737 -0.12747495 0.031928364 -0.05547722
0.23521695 -0.098588586 -0.17137124 0.064194836 -0.19272928 0.099420354 0.37106493 0.118755005
0.06791388 0.17726634 -0.23032902 0.2108083 0.11452761 0.093442254 0.11703835 0.11490442
0.056888882 0.13053194 -0.11729534 0.057738725 -0.19056673 -0.42219567 -0.18052836 0.18961622
0.11544856 -0.016626175 -0.11653273 -0.015602889 0.16385676 -0.036804993 -0.046143856 -0.1759365
0.14480567 -0.14703195 0.23223093 0.029382579 -0.11577442 -0.010557724 -0.19342199 -0.053516716
0.12406245 -0.12501955 -0.1782084 -0.17550811 -0.18977676 -0.19483346 -0.1996532 -0.18798482
0.09574464 -0.24897602 0.05893651 0.030175261 0.09607561 -0.016379511 0.12738204 0.023672273
-0.10320291 -0.19541799 0.004273127 -0.068027236 -0.16657443 -0.17771907 -0.042421598 -0.07760598
-0.0056663533 -0.039065037 -0.120046355 0.10539395 -0.22151384 0.032869946 -0.013279637 -0.22605638
-0.012358474 -0.18369848 -0.11447559 -0.2175837 0.1884136 -0.21720561 -0.15196703 -0.15948135
0.13586794 0.1714872 -0.18204118 -0.048469163 -0.10514273 -0.18230622 -0.22595355 0.1890497
-0.13358131 -0.03006188 0.0075584305 0.3367251 -0.0804503 0.112829834 -0.17057268 0.0047879997
0.018809522 0.025089255 0.10927737 -0.028449971 0.16102885 0.012003977 -0.16951215 -0.019914676
-0.07230821 0.16565856 0.12384375 0.0504793 0.08554344 0.1317172 -0.16152187 -0.017788038
0.1989957 0.038586404 0.1469367 -0.123049274 0.14185682 0.04464323 0.3274619 0.17611334
0.10521989 0.119319886 0.3114919 0.18165578 0.1445606 0.14621525 -0.04411968 -0.19147706
-0.1866586 -0.096473336 -0.054430056 -0.024844227 -0.09589958 0.05098224 -0.15460941 0.08521634
-0.01092783 -0.11941111 0.18990558 0.11982651 0.060196545 -0.07809691 -0.06290836 -0.054217696
-0.03397111 0.0016005731 0.04465868 -0.057221096 0.1644973 0.059892993 -0.049504276 0.18029371
0.016576579 0.035803746 0.14248732 0.044033304 0.16363975 0.01751727 0.05995701 -0.18687911
-0.07691383 -0.21629049 0.032539714 0.012451315 -0.159501 0.1977978 -0.16127557 0.10314504
0.16652006 -0.03253422 -0.064862676 -0.08809799 0.15627605 0.19967915 0.14033169 0.080405466
0.13240267 -0.07780012 -0.0365148 -0.0954504 -0.025002832 -0.0406899 0.051473152 0.21875557
-0.0090339575 0.065756746 -0.14304607 0.07900813 0.0138051 0.21098511 0.18239772 -0.20007074
-0.010111694 -0.07726604 -0.153847 -0.15901504 0.09291132 0.01079731 0.4092554 0.117365696
-0.07680091 0.16727294 0.004642117 -0.21462797 -0.19329333 0.09496162 0.15901498 -0.19991763
