Make-Prediction/Graph_Own_0.1_state_dict.pth (torch, 818328 bytes, 4 tensors)

conv1.bias f4 [112]
0	0xbb37a320	-0.0028020814
1	0xbb7aae48	-0.0038250852
2	0xbbee0a69	-0.0072644246
3	0xbba93212	-0.0051634395
4	0xbbc4faee	-0.0060113585
5	0xbbe3a88d	-0.006947583
6	0xbbd64872	-0.006539398
7	0x3d916439	0.07099194
8	0x3d5ef3ad	0.054431606
9	0xbd251b80	-0.04030943
10	0x3e3ca442	0.18422034
11	0xbc62dcbc	-0.0138465725
12	0xbcc98c72	-0.024603102
13	0xbc1ee619	-0.009698414
14	0xbbc3b3ce	-0.005972362
15	0x3c356445	0.011071269
16	0xbb97b69b	-0.0046299226
17	0xbc024793	-0.007951635
18	0xbb3ad2c9	-0.0028506985
19	0xbbfad41b	-0.0076546795
20	0xbc6a0b3e	-0.014284907
21	0xbc0b018e	-0.008484257
22	0xbbdce003	-0.0067405715
23	0xbbb0cbab	-0.005395373
24	0xbcc89ebb	-0.024489751
25	0xbb868b90	-0.0041059926
26	0xbbfa4eff	-0.0076388116
27	0x3cf697f3	0.030101752
28	0xbca7d7cb	-0.02048864
29	0x3d9df80a	0.07713325
30	0xbc2b7d7a	-0.010466928
31	0x39cf8216	0.00039579038
32	0x3dbe18f0	0.092821
33	0xbbfaa41a	-0.007648957
34	0xbb76e4ec	-0.003767307
35	0x3c3cf7b0	0.011533663
36	0xbb3d22bc	-0.0028859815
37	0xbc005748	-0.0078333095
38	0xbc8e6399	-0.017381476
39	0xbbf17b39	-0.0073694256
40	0xbb909208	-0.0044119395
41	0xbbf2c09f	-0.007408216
42	0xbc048ff7	-0.0080909645
43	0x3e809cf7	0.25119755
44	0x3df34b1d	0.11879561
45	0x3d1b55e7	0.03792372
46	0xbc018d69	-0.00790725
47	0xbbef9e2a	-0.007312556
48	0xbe3e880a	-0.18606582
49	0xbbcb3ce9	-0.0062023294
50	0xbc83666c	-0.01604005
51	0xbbc9afad	-0.0061549754
52	0xbc22517d	-0.009907124
53	0xbbca9171	-0.0061818887
54	0xbc00ebf0	-0.007868752
55	0xbbc23aa3	-0.0059274
56	0xbbca3cd0	-0.0061718
57	0xbb0e4398	-0.002170777
58	0xbc1a7e95	-0.009429594
59	0x3ddad1d8	0.10684556
60	0x3cdf6c30	0.027273268
61	0xbbb7eeae	-0.0056131696
62	0xbbcebbed	-0.0063090236
63	0xbb942e21	-0.0045221006
64	0x3d25311e	0.040330045
65	0xbbc5c25a	-0.0060351314
66	0x3c09114e	0.008365942
67	0xbb5fe723	-0.0034164868
68	0xbbed2403	-0.007236959
69	0xbd2a1e2d	-0.041532684
70	0xbbbe455c	-0.005806608
71	0xbbdb49a6	-0.006692129
72	0xbb2bd633	-0.0026220202
73	0xbb80de10	-0.003932722
74	0x3ec0351d	0.37540522
75	0xbba82abe	-0.0051320484
76	0xbb6020d5	-0.0034199257
77	0xbbb8da69	-0.005641271
78	0xbbf99dc7	-0.0076176855
79	0xbc0e2e05	-0.008677964
80	0xbb65d457	-0.0035069191
81	0xbcc8ae70	-0.02449724
82	0xbcaa2676	-0.020770293
83	0xbba95ad6	-0.005168299
84	0xbbaf537a	-0.0053505274
85	0xbc2d85d6	-0.010590991
86	0xbbe6cc82	-0.007043422
87	0xbbbd0a5b	-0.0057690567
88	0xbcd7990e	-0.0263181
89	0xbbc835a0	-0.006109908
90	0xbbc4f07e	-0.006010114
91	0x3dc8cafc	0.09804341
92	0xbc32f6e1	-0.010923118
93	0xbc35bec0	-0.011092842
94	0x3d88f1e3	0.06686761
95	0xbbfdbb25	-0.0077432566
96	0xbb32b27d	-0.0027267032
97	0x3bf754dd	0.0075479583
98	0x3b0d72d2	0.002158333
99	0xbb4337c0	-0.0029787868
100	0x3c6a3233	0.014294195
101	0xbde69630	-0.11259115
102	0xbc615822	-0.013753923
103	0xbce69479	-0.02814697
104	0x3dc371dc	0.09543201
105	0xbbbf5a53	-0.005839625
106	0xbc7f2567	-0.015572882
107	0x3cf1d27c	0.029519312
108	0x3c648dfb	0.013949866
109	0xbbfbdc08	-0.007686142
110	0x3ce67d00	0.028135777
111	0x3bdde29a	0.006771398

conv1.lin.weight f4 [112, 1792]
0	0xbd1b0db9	-0.037854884
1	0x3d1dfb4f	0.038569745
2	0x3b87a9cd	0.004140115
3	0x3acdd09d	0.001570243
4	0xbd3db5bd	-0.046315897
5	0xbd29717c	-0.041367993
6	0x3b862ce5	0.0040947073
7	0x3d39bbe8	0.045345217
8	0x3d1ab211	0.037767474
9	0xbc875db0	-0.016524166
10	0x3c5390d6	0.01291295
11	0x3d49b5f2	0.049245782
12	0xbd02785d	-0.03185307
13	0xbc35d7e3	-0.011098835
14	0xbd0a307e	-0.033737652
15	0x3c661dac	0.01404516
16	0x3d1d058a	0.03833536
17	0x3d296ce8	0.041363627
18	0x3d2ac8cb	0.041695397
19	0xbc3f4506	-0.011674171
20	0x3d024d36	0.031811915
21	0x3d43c4f1	0.04779524
22	0x3d5634a7	0.052296307
23	0x3cb92c00	0.022603989
24	0x3c379f95	0.011207481
25	0x3b4b5604	0.003102661
26	0xbd653e02	-0.05596734
27	0xbcb0b696	-0.021571439
28	0x3cdc02c1	0.026856782
29	0xbd55e4d2	-0.052220173
30	0x3d4870fc	0.048935875
31	0x3d2fd1c6	0.042924665
32	0xbc9af25a	-0.01891439
33	0x3cf935e7	0.03042121
34	0xbcd63e95	-0.026152888
35	0xbbca041d	-0.006165041
36	0x3b9fc29f	0.0048754956
37	0xbce33503	-0.027735239
38	0xbd31ce99	-0.043409918
39	0x3d443f4f	0.04791194
40	0x3c466168	0.012108184
41	0xbd33cb92	-0.04389531
42	0x3c1d2007	0.009590155
43	0xbd35d013	-0.04438789
44	0x3cdacb8c	0.026708387
45	0x3d16bf98	0.03680381
46	0xbbb32287	-0.0054667625
47	0xbc679963	-0.014135691
48	0xbd66ed91	-0.056378905
49	0xbd2a0765	-0.04151096
50	0x3d36ef4d	0.04466181
51	0xbc2a7e84	-0.01040614
52	0x3d0cbb7f	0.034358498
53	0xbba4e759	-0.0050324616
54	0x3d270769	0.04077855
55	0x3cfc756b	0.030817708
56	0x3c30fd86	0.010802632
57	0xbd47f330	-0.048815906
58	0xbd31d73e	-0.04341816
59	0x3d13525d	0.03596722
60	0xbd350281	-0.04419184
61	0xbd02b4cd	-0.031910706
62	0x3d5cf6fc	0.05394648
63	0x3d224d71	0.039624635
64	0xbd1137a5	-0.035453457
65	0xbb502c81	-0.0031764808
66	0x3d083655	0.03325494
67	0x3d34813e	0.044068567
68	0xbd50c1d1	-0.050966088
69	0x3d2428e2	0.04007805
70	0xbc1782fa	-0.009247536
71	0x3cad9305	0.021188268
72	0x3c427648	0.011869021
73	0xbd1f4b7a	-0.03889034
74	0x3cdf781e	0.027278956
75	0x3cda3235	0.026635269
76	0xbd2fce14	-0.04292114
77	0x3a288f8b	0.0006430081
78	0xbce0c707	-0.027438654
79	0x3c1a0beb	0.0094022555
80	0xbcc35c23	-0.023847645
81	0x3d1fb7dd	0.038993705
82	0x3ce03aee	0.02737185
83	0x3a10f79f	0.00055300625
84	0x3d33ad93	0.043866705
85	0xbd273601	-0.040822987
86	0x3d0a67b8	0.03379032
87	0xbcf03405	-0.02932168
88	0x3d24706b	0.040146273
89	0xbd620bd3	-0.055187058
90	0xbb9c68ad	-0.0047732205
91	0x3c332474	0.010933984
92	0xbd44356a	-0.047902502
93	0x3d27670b	0.040869754
94	0xbcac8011	-0.02105716
95	0xbcdd53e8	-0.027017549
96	0xbd2c9a8f	-0.042139586
97	0x3d41197f	0.047143456
98	0x3cce3802	0.025173191
99	0xbcf56e25	-0.029959748
100	0xbd0d4f03	-0.03449918
101	0x3d2d85ce	0.042363934
102	0x3c1f2530	0.009713456
103	0x3d1bda63	0.038050067
104	0x3cb50c6a	0.022100646
105	0xbcf21d63	-0.029555028
106	0xbc9c9dfe	-0.019118305
107	0x3cdab501	0.026697638
108	0x3d444060	0.047912955
109	0xbd3b5dc7	-0.04574373
110	0x3d19c7f4	0.037544206
111	0xbd1f1758	-0.03884062
112	0x3d5dbc06	0.05413439
113	0x3c855edc	0.016280584
114	0xbd5e7f46	-0.054320596
115	0xbd13ad5b	-0.036053997
116	0x3cee7d80	0.029112577
117	0xbc39dd0c	-0.011344206
118	0x3d4f9000	0.05067444
119	0xbc5fab39	-0.0136516625
120	0xbd0f3bb2	-0.03496904
121	0xbd1e61f5	-0.038667638
122	0x3b9d3bef	0.0047984044
123	0xbd67a7de	-0.056556575
124	0xbb527607	-0.0032113807
125	0x3c95057a	0.018191088
126	0xbd1c85ab	-0.038213413
127	0xbc25e5f1	-0.010125623
128	0x3d1966df	0.03745162
129	0x3cf5fd85	0.030028114
130	0xbceeeb81	-0.029165031
131	0xbd16a6b9	-0.036780093
132	0xbcff36d1	-0.031154068
133	0x3cc83650	0.02443996
134	0x3c9a63ca	0.018846411
135	0xbc891166	-0.016731929
136	0x3cce679b	0.025195887
137	0x3bd134ad	0.0063844533
138	0xbd33d122	-0.043900616
139	0x3c4ecbe9	0.012621858
140	0x3c91dbfc	0.017805092
141	0xbd68efab	-0.05686919
142	0x3cce25f2	0.025164578
143	0xbd25c4da	-0.040470935
144	0x3ccb41be	0.024811622
145	0x3d5932f4	0.05302711
146	0x3ab5c1f8	0.0013867011
147	0x3d673d35	0.056454856
148	0xbb9d1906	-0.004794243
149	0x3cd50f08	0.026008144
150	0xbcff3077	-0.03115104
151	0x3d11510c	0.035477683
152	0x3d14d6de	0.036337726
153	0xbc840019	-0.016113328
154	0xbc270658	-0.010194384
155	0x3d551617	0.05202302
156	0xbcac5afa	-0.021039475
157	0xbd40da08	-0.04708293
158	0x3a3b5cb6	0.0007147299
159	0xbd222e34	-0.039594844
160	0xbc90c0f9	-0.017670142
161	0x3d3fe25f	0.046846744
162	0xbaf5d107	-0.0018754312
163	0x3d31fa2e	0.04345148
164	0x3c150564	0.0090955235
165	0x3c54ad8d	0.012980831
166	0x3cabec06	0.020986568
167	0xbc0878cc	-0.0083295815
168	0xbca56553	-0.020189917
169	0x3d180621	0.03711522
170	0xbc768ffa	-0.015048975
171	0x3c80a534	0.015703775
172	0x3c0f35a2	0.008740814
173	0x3d158b85	0.03651001
174	0xbd10fcaf	-0.035397228
175	0xbd33a454	-0.043857887
176	0x3d699e02	0.057035454
177	0x3ce0d36a	0.02744456
178	0xbd2598f8	-0.040429085
179	0xbd1d1107	-0.038346317
180	0x3d1bbeab	0.038023632
181	0x3c24ab0e	0.010050548
182	0x3d2ee4f0	0.0426988
183	0xbc961901	-0.01832247
184	0x3d3c259e	0.045934312
185	0xbc3c2256	-0.011482796
186	0xbc234541	-0.009965242
187	0xbd450a18	-0.04810533
188	0xbd45028f	-0.048098143
189	0xbcfb4de4	-0.03067679
190	0x38d8d890	0.000103400205
191	0x3c971d07	0.018446459
192	0xbcea9eeb	-0.028640231
193	0xbb92dbfb	-0.00448179
194	0xbbdf5cea	-0.006816496
195	0xbc0eb0e0	-0.0087091625
196	0xbcb61322	-0.02222592
197	0xbc8e6f86	-0.017387163
198	0x3bbfbc62	0.0058513144
199	0x3d4f4c0b	0.05060963
200	0x3ccf0181	0.025269272
201	0xbcd5f75e	-0.02611893
202	0x3b35260d	0.0027641088
203	0xbcb37fd2	-0.021911535
204	0x3ce8a9c0	0.028401256
205	0xbc604667	-0.01368866
206	0xbcc7ec86	-0.024404775
207	0x3c807c5a	0.015684295
208	0xbcffeaee	-0.031239953
209	0x3d359d26	0.04433932
210	0xbcb834d8	-0.022486135
211	0x3b18ddd7	0.0023325586
212	0xba46709c	-0.00075698807
213	0x3ba05f91	0.004894205
214	0x3cc2e024	0.02378852
215	0x3d6381ba	0.05554364
216	0x3d2be339	0.041964743
217	0xbd80bb7e	-0.06285761
218	0xbb5f1854	-0.00340416
219	0x3d13d9ff	0.03609657
220	0x3cd9b560	0.026575744
221	0x3cb0a87d	0.021564716
222	0x3cff186a	0.031139571
223	0xbccfe4b9	-0.025377618
224	0x3d625e11	0.05526549
225	0x3cf4ec0b	0.02989771
226	0xbc580b07	-0.013186223
227	0xbd044bec	-0.032298967
228	0x3d363b58	0.04449019
229	0x3ca65638	0.020304784
230	0x3c887e5b	0.016661813
231	0x3d57ae09	0.052656207
232	0x3c9aea1b	0.018910458
233	0xbc51b3eb	-0.012799243
234	0xbbe1c0f4	-0.006889457
235	0x3c5d8c01	0.013522149
236	0x3cc6ee5f	0.024283586
237	0xbd32426a	-0.04352037
238	0x3c3309c1	0.0109276185
239	0xbc026341	-0.007958234
240	0x3d39172b	0.04518811
241	0x3c182802	0.009286882
242	0xbd15c78b	-0.036567252
243	0x3d5c6d89	0.0538154
244	0xbc7184c1	-0.014741124
245	0x3cd0cd26	0.025488447
246	0x3c10eda2	0.008845719
247	0xbcc52b01	-0.024068357
248	0x3c27bd1b	0.010237957
249	0x3d12a35b	0.03580032
250	0x3bbcc42e	0.005760691
251	0x3cffe8fa	0.031239022
252	0xbbc373dd	-0.0059647397
253	0xbce547f0	-0.027988404
254	0xbcc07602	-0.02349377
255	0xbc579074	-0.013156999

conv2.bias f4 [28]
0	0xbe561256	-0.20905432
1	0x3e016ce3	0.12639193
2	0x3e269e3d	0.162713
3	0xbe2884be	-0.16456887
4	0xbdd9535a	-0.10611601
5	0xbdd02333	-0.10162964
6	0xbd9895cf	-0.07450449
7	0x3e1d3bda	0.15354863
8	0x3dadf5a4	0.08494118
9	0x3d228596	0.03967818
10	0xbdda5e2c	-0.10662493
11	0x3deb949c	0.11502954
12	0x3ceb8119	0.028748082
13	0x3e71fe92	0.23632267
14	0x3e173f68	0.14770281
15	0xbe8a71ac	-0.2703985
16	0xbe869857	-0.262881
17	0x3e2bf595	0.16792901
18	0xbdf81ce6	-0.12114887
19	0xbe6c6ca7	-0.23088323
20	0xbe455723	-0.19271521
21	0xbd9aa22a	-0.075504616
22	0xbddb0ae3	-0.10695436
23	0xbda19fce	-0.078918085
24	0x3dde99f5	0.10869209
25	0x3d7d30e7	0.061814215
26	0xbd602c69	-0.054729853
27	0xbdbec210	-0.09314358

conv2.lin.weight f4 [28, 112]
0	0x3b3e535e	0.002904139
1	0xbe445ec8	-0.19176781
2	0x3db5b557	0.088724785
3	0xbc3be5de	-0.011468379
4	0x3e3b4991	0.18289782
5	0xbe132c10	-0.14372277
6	0xbdafdd45	-0.08587126
7	0x3ccedebd	0.025252694
8	0xbe134063	-0.1438003
9	0x3d398140	0.045289278
10	0x3d894ea6	0.06704454
11	0x3dfb3d61	0.122675665
12	0x3ce935ae	0.02846798
13	0xbd62f838	-0.0554125
14	0x3e0eda6c	0.13950509
15	0xbd5a0cf8	-0.053235024
16	0xbe166978	-0.1468867
17	0x3db0d2ee	0.08633982
18	0xbdd9a11c	-0.10626432
19	0x3e08e5b1	0.1336887
20	0x3b9d511a	0.004800928
21	0x3afe6c20	0.0019410886
22	0xbe3c4fbf	-0.18389796
23	0xbd412924	-0.047158375
24	0x3e4cadeb	0.1998822
25	0x3e0f178d	0.13973828
26	0xbe03233a	-0.12806407
27	0xbd54bd59	-0.05193839
28	0x3da1dd79	0.07903571
29	0x3e2d662f	0.16933511
30	0x3e660582	0.22463039
31	0x3e00ba74	0.12571126
32	0x3de0dd30	0.10979688
33	0xbde50b3f	-0.11183786
34	0xbda1a6b2	-0.07893123
35	0x3e4cd1ab	0.20001857
36	0x3c32128e	0.010868682
37	0xbe44a265	-0.19202574
38	0x3bb18c2e	0.005418322
39	0xbd92846c	-0.07154164
40	0xbe281b7f	-0.16416739
41	0xbd5b5d69	-0.05355588
42	0x3db2bee5	0.087278165
43	0xbe902697	-0.28154442
44	0xbeced844	-0.40399373
45	0xbe4c8b3a	-0.19974986
46	0x3d83fe73	0.06445017
47	0xbe32b8aa	-0.17453256
48	0x3e6cea2b	0.23136203
49	0x3e020603	0.12697606
50	0x3e0a5262	0.13507989
51	0xbdbcddeb	-0.09222015
52	0x3e3a7676	0.18209252
53	0x3b2534fe	0.0025208588
54	0x3e43ec63	0.19133143
55	0xbd0ad610	-0.033895552
56	0x3dcc3b0e	0.09972201
57	0xbdb0a695	-0.08625523
58	0xbd998b4c	-0.07497272
59	0x3bc707aa	0.0060739117
60	0x3e1da8d9	0.15396442
61	0x3c729bab	0.014807622
62	0x3cb366f1	0.021899672
63	0xbe17f02d	-0.14837714
64	0x3dcf89b3	0.10133686
65	0xbc4bf9a2	-0.012449654
66	0xbe46a1aa	-0.19397607
67	0x3cbf5be6	0.02335925
68	0x3d9fae28	0.077968895
69	0x3e870a9c	0.26375282
70	0x3d471948	0.048608094
71	0x3ad2f2ed	0.0016094126
72	0xbd8436ed	-0.06455789
73	0xbda13c15	-0.07872788
74	0xbe3afbf0	-0.18260169
75	0x3e0cd5da	0.13753453
76	0xbd1587b5	-0.036506373
77	0x3dcb5520	0.09928346
78	0x3e5f0479	0.2177905
79	0x3e3bc5b9	0.18337144
80	0x3d5b06c8	0.053473264
81	0x3c2d6d50	0.010585144
82	0x3e5f13ae	0.21784851
83	0x3cf70c12	0.030157123
84	0x3dae5a3a	0.08513303
85	0xbe2e14a4	-0.17000061
86	0x3c0dc36d	0.00865255
87	0xbe1122ea	-0.14173475
88	0xbe6159d6	-0.22006926
89	0xbe17c56e	-0.14821407
90	0xbdeefbd6	-0.11669128
91	0xbd3d4198	-0.046205133
92	0x3df79694	0.120892674
93	0xbcd20808	-0.025638595
94	0x3e9b9c35	0.30392614
95	0xbe1dbbdd	-0.15403695
96	0xbe28d3d2	-0.16487053
97	0x3db15e21	0.08660532
98	0xbdf2b1b6	-0.11850302
99	0x3e2e7cfe	0.17039868
100	0x3da984d8	0.08277291
101	0x3d33e6b5	0.04392119
102	0x3cfd827a	0.030946005
103	0xbe10f71e	-0.14156768
104	0x3d9d123b	0.07669493
105	0xbd3daaa8	-0.04630533
106	0x3e69f26b	0.22846381
107	0x3e06a42e	0.13148567
108	0xbd93e767	-0.07221871
109	0x3d67dfb7	0.056609835
110	0xbd8650ae	-0.06558357
111	0x3d0a265d	0.033727992
112	0x3d268546	0.040654443
113	0xbe320ad8	-0.17386949
114	0xbdf3132f	-0.11868893
115	0xbdaa3cd3	-0.083123825
116	0x3e362afb	0.17789833
117	0xbdf94a31	-0.12172354
118	0xbdef79c2	-0.11693145
119	0x3df37a26	0.11888532
120	0xbe852861	-0.2600737
121	0xbe0cb2ab	-0.13740031
122	0x3f3ff2c0	0.7497978
123	0xbd2f2f18	-0.04276952
124	0x3d605947	0.05477264
125	0x3e439ac9	0.19102015
126	0xbded95bc	-0.11600825
127	0x3d508360	0.05090654
128	0xbd03fa99	-0.03222141
129	0x3e4ba2e3	0.19886355
130	0x3da05b4d	0.07829914
131	0x3d9e947f	0.07743167
132	0xbdd4e9c2	-0.10396148
133	0x3d94ae1c	0.07259771
134	0xbe22bbee	-0.15892002
135	0x3e0d64c0	0.13807964
136	0xbe1c68cb	-0.1527435
137	0xbda62bc7	-0.081138186
138	0xbe2df31b	-0.16987269
139	0x3d0db806	0.034599327
140	0x3d687a1f	0.05675709
141	0x3e1a2b0f	0.15055488
142	0x3d894e32	0.06704368
143	0xbdda57c8	-0.10661274
144	0x3e629513	0.2212718
145	0x3d591fd5	0.053008873
146	0xbc9f6628	-0.019457892
147	0xbde15da7	-0.11004191
148	0x3c0f4839	0.008745247
149	0xbe0f4dbb	-0.13994496
150	0xbe3c0515	-0.18361314
151	0x3d750d06	0.059826873
152	0x3e0cd020	0.13751268
153	0xbe386f49	-0.18011202
154	0x3e06bee7	0.13158761
155	0xbd9ecf0f	-0.07754337
156	0xbe7b1841	-0.24520971
157	0xbdf76f49	-0.12081773
158	0xbb309c09	-0.0026948473
159	0xbd672d67	-0.056439783
160	0x3be15515	0.0068765976
161	0xbe337a15	-0.1752704
162	0x3c8a8e10	0.016913444
163	0x3de67f2e	0.11254726
164	0xbdd9917a	-0.106234506
165	0x3e49aec4	0.19695574
166	0x3c8b8f76	0.017036181
167	0x3e1d62f7	0.15369783
168	0xbe43c1da	-0.19116917
169	0xbe0a2490	-0.1349051
170	0xbdeba31a	-0.115057185
171	0x3e6beab8	0.23038757
172	0x3e0f05af	0.13967012
173	0xbe4c8b84	-0.19975096
174	0xbe30f8f2	-0.17282465
175	0xbc445fdd	-0.011985746
176	0xbdbf3d0e	-0.09337817
177	0xbd124b44	-0.03571631
178	0xbc0ccaff	-0.00859332
179	0xbe3305a6	-0.17482623
180	0xbdb1d57a	-0.086832955
181	0x3e4052ab	0.18781535
182	0xbdcc3b54	-0.099722534
183	0x3d7bc265	0.061464686
184	0xbbaba9a5	-0.005238729
185	0xbdebfed5	-0.11523215
186	0xbc9414a2	-0.018076245
187	0x3ddcb346	0.10776381
188	0x3d617881	0.055046562
189	0xbe2a4ff2	-0.16632059
190	0x3e516fc9	0.20452799
191	0x3e382d65	0.17986067
192	0xbd12d36c	-0.03584616
193	0xbe5f4aec	-0.21805924
194	0x3d3ec681	0.046576027
195	0xbe46bd38	-0.19408119
196	0xbddf6f76	-0.10909931
197	0xbdf746ca	-0.12074049
198	0x3e36db48	0.17857087
199	0xbe19f8cd	-0.15036316
200	0xbdb057ed	-0.086105205
201	0xbe4b7473	-0.1986864
202	0x3d99a2a8	0.07501727
203	0xbe419429	-0.18904175
204	0x3c0f6a00	0.0087533
205	0xbdd16c32	-0.10225715
206	0x3e6244d9	0.22096576
207	0x3e58f995	0.21188958
208	0x3d411534	0.04713936
209	0xbd82d4db	-0.06388255
210	0xbcd88432	-0.026430223
211	0x3dc5b8f2	0.09654416
212	0xbd261fc4	-0.040557638
213	0x3ddff392	0.10935129
214	0x3e6e9537	0.23299108
215	0xbdad13a6	-0.08451013
216	0xbe32e0f7	-0.1746863
217	0x3e268807	0.16262828
218	0x3dc4f825	0.09617642
219	0x3e2409b5	0.16019328
220	0x3e503864	0.20334011
221	0xbd8f5935	-0.06999437
222	0x3d7f66c9	0.062353883
223	0xbd4d399d	-0.050103772
224	0x3b2bcf51	0.00262161
225	0x3d93450d	0.07190905
226	0xbe22e0b1	-0.15906025
227	0xbdc48db6	-0.09597342
228	0x3e324438	0.17408836
229	0xbe165da8	-0.14684165
230	0xbdece7b8	-0.11567634
231	0x3e305043	0.17218117
232	0x3ea96d2e	0.3309111
233	0xbd00649d	-0.031345952
234	0x3e1e636a	0.15467611
235	0x3d92d6f9	0.07169909
236	0x3d87736d	0.066138126
237	0xbd8ec942	-0.06971981
238	0x3cdb35ae	0.026758995
239	0xbe0310b6	-0.12799343
240	0x3e1b16b1	0.15145375
241	0xbe50ab6b	-0.20377891
242	0x3d82f9d9	0.06395311
243	0xbe37a8e2	-0.17935517
244	0x3dcb9b57	0.09941738
245	0x3db2ac38	0.08724254
246	0x3de3656a	0.111033276
247	0x3e105b1c	0.14097255
248	0xbe5e7f46	-0.21728238
249	0x3dde7e35	0.10863916
250	0x3e1745a2	0.14772657
251	0xbcb6956a	-0.022288043
252	0x3e4906e2	0.19631532
253	0xbdf6c966	-0.120501325
254	0xbe2d033f	-0.1689577
255	0x3dd7d7a8	0.1053918
