Make-Prediction/Graph_Comparison_OGB_state_dict.pth (torch, 818384 bytes, 4 tensors)

conv1.bias f4 [112]
000000 40 ed 7e bb 1b 87 a3 bb 88 95 c4 bb 4b 01 c3 bb
       -0.0038898736 -0.004990471 -0.005999271 -0.005951082
000010 a5 7b 02 3e 13 d5 47 3c f9 b0 23 3d 69 f9 e2 bd
       0.12742479 0.012196797 0.039963696 -0.110827275
000020 d1 96 86 bb b6 03 be bb af a1 41 3e 50 7f 03 bc
       -0.004107334 -0.005798782 0.18909334 -0.008025959
000030 62 2d df bb fc a9 83 3e 39 e2 d8 bd 7b 56 27 bb
       -0.00681083 0.25715625 -0.105900235 -0.0025533724
000040 fa 21 d8 3d 1e c3 56 bb be d9 bb bb 4d 13 b2 3c
       0.105533555 -0.0032770108 -0.005732744 0.021737719
000050 76 86 bc 3b 5d 04 2a 3b b8 77 6f bb 6b 68 b9 bb
       0.0057533337 0.0025942542 -0.0036539864 -0.0056581995
000060 d7 dc b4 bb 9f f6 db bc 1f db c2 bb 75 38 ff 3b
       -0.00551949 -0.026850997 -0.0059465314 0.0077887126
000070 7a 46 bb 3b 14 1c 34 bc af 28 1f bb 48 87 9b bc
       0.0057151886 -0.0109930225 -0.0024285724 -0.018985406
000080 81 48 1d bc 6f 7c 89 3e 8d e0 b2 3d 78 3f fb ba
       -0.009599806 0.26852748 0.08734236 -0.0019168695
000090 55 f7 c2 bb 9c 42 07 be 72 2f e3 3b 53 8a af 3d
       -0.0059498944 -0.13209003 0.006933146 0.08571305
0000a0 85 e9 00 bc a4 c0 94 3b e5 b5 df 3c 03 a4 f9 bb
       -0.007868175 0.004539566 0.027308414 -0.0076184287
0000b0 84 cf f6 3d 86 e5 57 3c 29 64 00 3e e7 60 25 bb
       0.12051299 0.013177281 0.12538208 -0.002523476
0000c0 1a 2e e0 bd d9 cf 89 bd 18 d3 42 3e 09 43 29 be
       -0.10946293 -0.06729097 0.19025838 -0.16529478
0000d0 f8 58 d0 3d df ef 3c 3e 0e 34 df bb b2 fd 25 3d
       0.101732194 0.18450879 -0.0068116253 0.040525146
0000e0 17 5e b1 bb 27 fd 29 3e 41 d4 00 3e 2e e8 f5 bb
       -0.0054128277 0.16600476 0.12580968 -0.0075044846
0000f0 a2 53 01 bc 27 e9 50 3e aa dd fa bb c6 43 21 3e
       -0.007893475 0.2040144 -0.007655819 0.1574851
000100 75 41 91 bc 58 c4 91 3e 37 28 2f bb 47 43 09 3d
       -0.017731408 0.2847011 -0.002672685 0.033511426
000110 56 fc 72 3d bf 12 e3 bd 10 40 c6 bc 00 ab da bb
       0.059322678 -0.1108756 -0.02420047 -0.006673217
000120 3f ae 5a bb 49 28 c0 bb 09 8d 19 3b 69 b7 a2 3e
       -0.003336802 -0.0058641774 0.002343001 0.31780556
000130 36 4b 22 3e a0 f7 c5 bb ca ce c0 bb c7 22 9a bb
       0.15849003 -0.006041482 -0.005884026 -0.004703853
000140 45 8f 5a 3e c4 a7 85 3a ff 25 bc bb 47 11 1c 3e
       0.21343715 0.0010197093 -0.005741834 0.15240966
000150 ba 89 c2 bb 24 20 14 be 28 56 bd 3d 37 d8 44 bc
       -0.0059368284 -0.14465386 0.092449486 -0.01201444
000160 d2 99 d4 bb 22 b1 8d 3d c7 cf b7 bb f4 1b 00 3b
       -0.0064880634 0.06918551 -0.005609486 0.0019547911
000170 de 48 cc bb 78 fe c2 3d 4e 00 ab bb 19 19 c3 bb
       -0.0062342724 0.09521192 -0.005218542 -0.0059539196
000180 e9 2a 96 bb 99 2d 5a 3a 81 43 9e 3d 03 09 df bb
       -0.004582752 0.00083228346 0.07727719 -0.006806494
000190 0b 17 43 3e 10 78 c7 bb 28 c5 dd 3d a0 99 b4 bd
       0.19051759 -0.0060873106 0.1082862 -0.08818364
0001a0 41 9e b7 bb 1f e0 f4 bd e8 08 bc bb ff fb a0 3b
       -0.005603582 -0.1195681 -0.0057383664 0.004912853
0001b0 3e d8 c8 bb 2f 73 ee bb ee e1 90 3e 54 76 18 bb
       -0.0061292937 -0.0072769145 0.2829737 -0.0023263888

conv1.lin.weight f4 [112, 1792]
000000 a7 5c 08 bd 7a 0b 0e 3c 1a 91 96 b9 1b b6 be bc
       -0.033291485 0.008669728 -0.0002871834 -0.023280194
000010 81 aa cc bc cf 06 3a bd 76 8d 6b bd e9 99 25 3d
       -0.024983646 -0.04541665 -0.057507955 0.040429983
000020 45 94 eb bb 9a 1c f7 bc 29 4c b6 bb fa ad 17 3d
       -0.007189306 -0.030165005 -0.005563278 0.03703115
000030 52 c7 2b bd 3b 04 0a 3d fb 8d 49 bc bb ad 46 bc
       -0.041938134 0.03369544 -0.012301917 -0.0121263815
000040 b2 cb 6a 3c fe 8a db 3c 02 2b 30 38 d1 34 ef 3c
       0.014330791 0.026799675 4.2001724e-05 0.02919999
000050 de a8 ac 3b ce dc 72 3b 02 71 d7 bc 4e 72 c9 bc
       0.005269154 0.003705788 -0.026299004 -0.024590638
000060 c5 e1 0a 3d cc 00 aa ba 96 ae 32 3d 36 f8 27 bd
       0.033906717 -0.0012970208 0.04362353 -0.041008197
000070 7c 4f 6e bd 02 90 d9 bb b1 e8 10 bd ae 97 4a 3b
       -0.05818127 -0.0066394815 -0.03537816 0.0030913162
000080 c2 48 b0 39 d4 9f ca bc 2a dd 19 3c 9c 53 65 3d
       0.00033623545 -0.024734415 0.0093911085 0.05598794
000090 d3 4f 12 bd e7 5b 1e bd da f1 ae bb e4 7d 29 3d
       -0.035720658 -0.038661864 -0.0053388895 0.041379824
0000a0 7d 6d f9 3c 61 d8 d1 3c cd 17 35 3d ad c5 d0 bc
       0.030447716 0.025615873 0.04421215 -0.025484884
0000b0 46 02 7d bc 6e 38 ab bc 67 1e e8 bc 91 56 e3 3c
       -0.015442437 -0.020900931 -0.02833481 0.027751239
0000c0 3e de a4 3c fd 0d 36 3d 88 d1 aa 3c 65 4e f8 bb
       0.020125505 0.044446934 0.020851865 -0.0075777047
0000d0 22 c2 4f 3b 12 ca 3c 3d 3b d2 14 bc 3f 24 cb 3c
       0.0031701406 0.046091147 -0.009083326 0.024797557
0000e0 85 63 39 3d 08 8c bb bb 47 79 19 bd 38 8f c1 3b
       0.045260925 -0.00572348 -0.037469175 0.0059069656
0000f0 3b 10 02 bd 3f 05 df 3c e6 44 26 3d 59 73 20 bd
       -0.03175376 0.027224181 0.04059305 -0.039172504
000100 43 d0 32 bd ad 70 8f 3c 71 33 44 bd 23 9f 46 3d
       -0.043655645 0.017509783 -0.04790062 0.04849161
000110 02 1b b6 3c ca b6 1c bd 4f f0 b1 3c 30 a0 7b 3c
       0.022229675 -0.03826026 0.021721033 0.015358016
000120 39 96 55 3d 3a 55 cb bc 3a b4 f7 bb 11 f9 3d bd
       0.052145217 -0.024820913 -0.0075593265 -0.046380106
000130 19 94 11 3d 92 64 b4 3c 85 e7 a7 bc c6 2d a9 bc
       0.035541628 0.022020612 -0.02049614 -0.02065171
000140 71 25 d4 bb f5 f6 61 bd 0c 30 d2 3c 94 ae 33 3d
       -0.00647419 -0.055167157 0.025657676 0.043867663
000150 0a 03 4a 3c 74 58 37 3d c5 18 33 bd a1 a5 3f 3c
       0.012329826 0.04476209 -0.043724794 0.011697204
000160 80 dc ae 3c 46 00 eb bb e4 f2 9e 3c 33 b5 f1 3c
       0.021345377 -0.0071716635 0.019402929 0.029505348
000170 7f 05 4a 3d 78 8b 27 3d 25 b7 ca bc 34 35 78 bc
       0.049321648 0.040904492 -0.024745533 -0.015149403
000180 85 3f 26 bc 6a 5e 24 bd 06 ee 56 3d 7b 97 46 bd
       -0.01014698 -0.040129103 0.05247309 -0.048484307
000190 4e df 76 3b 49 fc bf 3c 4c fe 5b 3c fc be 51 bd
       0.003766972 0.023435729 0.013427328 -0.051207528
0001a0 51 c5 0f bd e4 c3 7e bc a0 ff 61 bd a2 97 4b 3d
       -0.035100285 -0.015549634 -0.055175424 0.049705155
0001b0 86 55 86 bc 86 45 4c bd 57 08 43 bd 31 e7 f5 bc
       -0.016398203 -0.04987099 -0.047615375 -0.030017467
0001c0 4d 46 05 bd 44 fb 42 bc 44 dd 41 3a 4d a1 d0 3c
       -0.032537747 -0.011900727 0.0007395337 0.02546754
0001d0 ed f6 10 3d e9 26 15 bd f7 8d 1a bd 09 65 18 3d
       0.035391737 -0.03641406 -0.037733044 0.03720573
0001e0 cb 54 70 bc 0e fb 58 3c 0c 1b dc bc 78 fb ed 3c
       -0.014668654 0.01324345 -0.026868366 0.029050574
0001f0 64 db 35 3d 1b 9a 31 3d d9 2b b0 3c 13 ce cf 3c
       0.04439868 0.043359857 0.021505283 0.025366819
000200 05 0a 4c bd db b9 93 bc d0 9a 02 3c ff 28 c7 bc
       -0.049814243 -0.018032959 0.0079714805 -0.02431154
000210 f9 ab 02 bd 3d ff 76 3c 4c a2 40 bd e1 8a 43 bd
       -0.031902287 0.015075502 -0.04702978 -0.047739867
000220 87 87 d0 3c 63 45 4b 3d 90 c3 41 3d 7a 83 bd 3c
       0.02545525 0.04962672 0.047305644 0.023133982
000230 89 db 1b bd 4a 04 37 3c de 36 98 bc 36 a5 be bb
       -0.038051162 0.011170456 -0.01858085 -0.0058180345
000240 74 82 b9 bc 84 ba 3b 3d f5 28 4d bc 1c 47 e8 3c
       -0.022645213 0.045832172 -0.012521972 0.02835422
000250 97 c0 88 3c e2 6c 07 3d ff 8a 57 bb 94 4e 83 3a
       0.016693396 0.033062823 -0.0032889245 0.0010017925
000260 f4 88 84 3c 25 04 cc bb 56 b2 68 3c 25 4d 87 bc
       0.016178586 -0.00622608 0.014202675 -0.016516278
000270 b0 6a 7f 3b e5 d1 5e bc 0d 3e 03 bd 70 a5 94 3c
       0.0038973503 -0.013599847 -0.032041598 0.018145293
000280 cc 01 d8 3c d2 dc 0d bd 8b 0c 06 bc 04 31 2f bd
       0.026368044 -0.03463442 -0.008181701 -0.042771354
000290 e4 f1 c5 bc e1 e1 2a bd 6f 3b cc 3c b5 26 15 bd
       -0.024163194 -0.04171932 0.024930684 -0.036413867
0002a0 01 19 f1 ba 63 03 a2 bc 69 05 d1 3c 49 78 2a 3d
       -0.0018394293 -0.019777006 0.025515275 0.04161862
0002b0 3b a0 f7 ba 22 83 f9 3b db 26 b9 3b 0d dd 15 bc
       -0.0018892357 0.007614509 0.005650384 -0.009146941
0002c0 66 4c 66 bd ff 0e 35 bd bd ec e5 3c ea 9e fb 3b
       -0.056225203 -0.044203755 0.028066987 0.007678856
0002d0 a6 f0 99 3c 4b ca 70 bc 29 b8 1d 3d 10 c7 b2 3c
       0.018791508 -0.014696668 0.038505707 0.021823436
0002e0 ae 67 1c 3c 66 8e 53 bd 85 bf 0a bd 4b 74 29 3d
       0.009546204 -0.051649474 -0.033874054 0.04137067
0002f0 fa d2 de 3c 99 ae 1f bd 38 01 c6 3c d2 24 f6 bc
       0.02720021 -0.03898487 0.024170503 -0.030046854
000300 12 98 d9 3c 35 30 32 bd 74 0d 0d 3d ad 37 29 3d
       0.02656177 -0.043503005 0.034436658 0.041312862
000310 92 1d b6 bc 45 94 0a 3d 7f 7b 53 3d 8e ef 2c bd
       -0.022230897 0.033832807 0.051631447 -0.042220645
000320 98 05 01 bc df b5 c7 bc 58 8e 11 bd ec d1 1d bd
       -0.007874869 -0.024378715 -0.03553614 -0.038530275
000330 35 25 dd 3c 56 13 a6 3b 4f 4f 0a bd d2 06 2e bd
       0.02699528 0.005068223 -0.03376704 -0.042486973
000340 c7 b6 21 3d 6a f8 b8 bc 91 dd 75 bc 08 2f 5d bd
       0.03948095 -0.02257939 -0.015006439 -0.05399993
000350 a2 57 dd bb 30 40 f4 3c db 14 80 3b 35 98 22 bc
       -0.0067548314 0.029815763 0.003908736 -0.009923984
000360 85 ca 37 bd fc cb 16 bd c4 9a fe 39 fd 76 af 3c
       -0.044870872 -0.03681563 0.00048561965 0.021419043
000370 b9 68 63 3d 9e d9 1b bd 83 53 ee 3b 26 1a d4 ba
       0.055519793 -0.038049333 0.007273139 -0.0016182109
000380 a9 e2 9c 3c 78 61 1d 3c 74 d7 bd 3c a4 33 54 bc
       0.019151049 0.009605758 0.023174025 -0.012951765
000390 8a 9d f8 3b 19 79 bc bb 11 08 60 bb ce d3 02 3d
       0.0075871395 -0.0057517407 -0.0034184495 0.031940274
0003a0 20 b2 63 bd 37 41 64 bd 27 80 97 3c 08 69 61 bd
       -0.055589795 -0.055726256 0.018493725 -0.055031806
0003b0 df f4 0f 3c 5d 5f 4f bd 54 90 0b 3d 43 d8 cd 3c
       0.008786409 -0.050628055 0.03407319 0.025127536
0003c0 55 5a 0d 3d 40 89 0c bd 0e 92 00 3d d4 ee 0d 3c
       0.034509975 -0.03431058 0.03138929 0.008662898
0003d0 5e 99 0a bd ba b8 4a bd f4 d7 21 bc 1f 24 2e 3d
       -0.03383767 -0.049492575 -0.009878147 0.042514917
0003e0 85 b6 cb bb 0d ba cd 3c ad 6c 5a bd 8d bf 68 3d
       -0.0062168264 0.02511313 -0.053326298 0.056823302
0003f0 ec 1e 30 bd 90 27 0c bd d5 c3 50 3d 2b a6 28 bd
       -0.04299824 -0.034217417 0.05096801 -0.041174095

conv2.bias f4 [28]
000000 84 93 49 3e 5b 94 de bc 17 ba 14 be f6 3c b3 3d
       0.19685179 -0.02717035 -0.14524113 0.08751862
000010 04 9b 2d be 14 68 0b be 8c 69 05 be f8 2b fb 3d
       -0.16953665 -0.13613921 -0.13028544 0.12264246
000020 d3 db 85 3c 31 9d 24 be 6d 70 3e 3e 60 63 2c 3e
       0.016340172 -0.16075589 0.18597575 0.16834784
000030 02 af 2c 3d 14 63 62 be 03 ca 53 be 7f d0 e4 3c
       0.042159088 -0.22108108 -0.2068253 0.02793145
000040 a5 b8 86 3e f8 e3 f3 3c 2d 4c 3e 3c 54 35 99 bd
       0.26312748 0.02977179 0.011614841 -0.07480875
000050 28 57 64 3d b0 09 a5 3d c5 ef 2a 3e 97 73 00 3d
       0.05574718 0.08058488 0.16693027 0.031360235
000060 12 7c 7d bd 34 c2 00 be 4c 34 d2 bd 60 d3 cd 3d
       -0.0618859 -0.12574083 -0.10263881 0.10050082

conv2.lin.weight f4 [28, 112]
000000 ef 09 a8 3d a1 1c 11 be 76 68 d2 3c d2 f6 f3 3d
       0.0820502 -0.14171077 0.025684576 0.119123116
000010 cf 6a c4 3d 9d 82 2b be ba c4 13 be 41 0d 20 bd
       0.095906846 -0.16749044 -0.14430514 -0.03907514
000020 4e 04 35 be 2c 04 dd bd 81 20 87 be 3d 86 cb bc
       -0.17677423 -0.10791811 -0.26391986 -0.024844283
000030 d5 8b 37 3e 6e cd a8 3d f1 05 af be 9c 19 15 3e
       0.17924435 0.082423076 -0.3418422 0.1456055
000040 45 7f dd 3c 3d 3a ae bd 86 ee 8f bd 50 93 95 3d
       0.027038226 -0.08507202 -0.070279166 0.07303488
000050 2b e9 0d bd 76 08 f7 3d 23 47 8e bd 49 e8 9b 3d
       -0.034646194 0.12062161 -0.06947162 0.07612664
000060 7d 1d af 3c 8b d0 51 bd 7f 6b b2 bd 8c 5c 95 3c
       0.021376366 -0.051224273 -0.087119095 0.018232606
000070 bb 8e ef 3c 0d 76 7a 3d 98 3c 02 3d 66 4c 7e 3d
       0.029242864 0.06114774 0.031796068 0.062084578
000080 6c c1 86 be fb 28 48 bd c5 4e c1 bd 9b 39 ed 3d
       -0.26319444 -0.048867207 -0.09438852 0.11583253
000090 07 64 20 be 1a 70 4a 3e af 36 69 3d 7d 68 df bc
       -0.15663157 0.19769326 0.056936916 -0.027271504
0000a0 1b 4f ae bc 63 15 66 be f8 7f 02 be aa cc 08 3e
       -0.021277955 -0.22469096 -0.12744129 0.13359323
0000b0 d0 5c 0d 3e bb 11 97 3c 8c 35 f6 3d 9a 77 0a 3b
       0.13804936 0.018441072 0.12021932 0.0021128417
0000c0 c8 c9 39 be e1 f7 c1 be c5 b4 d6 be f9 2d 29 be
       -0.1814338 -0.3788443 -0.4193479 -0.16521443
0000d0 06 c7 95 bd 37 b5 99 3d e9 5f 84 3d ad d5 35 3e
       -0.07313351 0.07505267 0.06463606 0.17757292
0000e0 10 55 16 3e 61 a8 a4 3e de 3f 63 3e cb bc 28 3e
       0.14680886 0.32159713 0.22192332 0.16478269
0000f0 08 d5 83 3d 27 f8 c9 be 73 e0 ca 3a d1 4f 42 be
       0.06437117 -0.39447138 0.0015478268 -0.1897576
000100 be 5c 89 bd ba 2d 0c bf d0 e5 9d bd 7f 59 a5 bd
       -0.06707142 -0.54757273 -0.07709849 -0.08073711
000110 b0 5f 6d be dc 22 52 3e a4 44 a0 3e d2 38 a5 3d
       -0.23181033 0.2052111 0.3130237 0.08067478
000120 3a 0f 55 be 9e 03 df 3c f6 09 bb 3a 00 c3 24 be
       -0.2080659 0.027223404 0.0014269936 -0.16090012
000130 05 2d ef be bf d9 d8 bd de ab e6 3d 3d 8d 21 bd
       -0.46714035 -0.10588407 0.1126325 -0.039441336
000140 81 22 8c 3e 8b 32 3c bd 2c d2 b0 bd 0d 7c 1a 3e
       0.27370074 -0.04594664 -0.08633837 0.15086384
000150 0b bb b6 3d de 38 c1 bd 2e 24 f7 bd 63 4d 79 3c
       0.08922394 -0.09434675 -0.120674476 0.015216204
000160 2f 4f 81 3d e7 ac cc bd 67 66 fd bb ce 69 33 bd
       0.06313931 -0.09993916 -0.0077331546 -0.043802075
000170 6b 5d 11 be 4a ea fd 3c aa 68 3a 3e aa 7c 5f bd
       -0.14195792 0.030995507 0.18203989 -0.05456225
000180 12 c4 5c bd ab 9a 16 be dd ad 18 3d 8d 07 29 3e
       -0.053897925 -0.14707439 0.037275184 0.16506787
000190 33 32 33 bc e1 10 36 3e 21 e7 3d 3e 62 cc cb bb
       -0.010937261 0.17779876 0.185452 -0.0062194327
0001a0 29 c9 38 3e 09 11 95 bc 0e da 8a 3d 5b 61 4e 3e
       0.18045487 -0.0181966 0.06779872 0.20154326
0001b0 f7 c9 19 be 70 65 b8 3d 9c f9 9b bd d0 06 6d bd
       -0.1501845 0.09003723 -0.076159686 -0.057867825
0001c0 36 28 51 bd 56 68 45 3e 24 78 31 be 36 ed f3 bd
       -0.05106374 0.19278082 -0.17330986 -0.11910479
0001d0 70 e5 f4 bd c4 a4 ff 3d 6c c4 51 be 75 cb 55 3e
       -0.11957824 0.124825984 -0.20485085 0.20878394
0001e0 7c b9 bb 3b e3 13 77 3d 1a 5d 1d be 1e 4e 10 be
       0.0057288986 0.0603217 -0.15367547 -0.140923
0001f0 2a 77 4e be 02 19 00 3f be 88 4a 3e 01 0d 1d 3e
       -0.20162645 0.5003816 0.19778726 0.15336992
000200 64 4d f2 bd 0e 86 43 be 6c 5e b1 3d 0c 76 20 3e
       -0.11831167 -0.19094107 0.08660588 0.15670031
000210 87 49 1d 3e 69 67 1f 3e ae 6a 13 3e 96 40 42 be
       0.1536008 0.15566792 0.14396164 -0.1896995
000220 9f 8d 08 3e ec aa fc bc c4 fa 2b 3e 65 e3 ff 3d
       0.13335274 -0.03084322 0.16794878 0.12494544
000230 d2 3c 53 bd b0 21 57 be 1a 73 a2 3d 48 1c aa bd
       -0.051571675 -0.21008945 0.0793211 -0.083061755
000240 3d dd 92 bd 29 59 e0 be 70 fa 38 3e 50 87 99 bd
       -0.07171104 -0.43818024 0.18064284 -0.07496512
000250 b9 17 75 3c ea 7e 2c 3e 73 aa 60 bd 2c d3 50 be
       0.014959269 0.16845289 -0.054850053 -0.20393056
000260 63 89 7a bd c1 8f 90 3d 59 bb 30 be 91 53 ad 3d
       -0.06116618 0.07058669 -0.17258967 0.08463205
000270 77 d7 90 3c 1f cc 1a 3e e6 76 0a be fa 55 26 3b
       0.017680867 0.15116929 -0.13521919 0.0025380836
000280 0a d4 87 3d a0 8a e9 bd dc 51 1f 3e 33 45 59 3e
       0.0663224 -0.11403394 0.1555857 0.21217804
000290 70 3e 67 be cd 0a 84 bd 6c 2d 87 b9 20 b0 a4 3d
       -0.22582412 -0.064473726 -0.00025783048 0.08041406
0002a0 8f 64 cb 3c b7 e0 19 be 2b 26 71 be 50 c0 b6 3d
       0.024828224 -0.15027128 -0.23549716 0.089233994
0002b0 f6 60 cf 3d 7c ad 7d 3c 5a 82 0d be 5c f3 ef be
       0.10125916 0.015483256 -0.13819256 -0.46865356
0002c0 26 3c f2 bd 24 cb af 3e 0d 7e 3b 3c 22 1c c0 bd
       -0.11827879 0.34334671 0.011443627 -0.09380366
0002d0 24 fb 65 be 75 c0 50 3e ef 68 48 be de 95 2c be
       -0.22459084 0.20385917 -0.19571279 -0.16854045
0002e0 cb a8 43 bd 91 20 4a 3e 2e 17 0a be 12 82 a6 3e
       -0.047768395 0.19738986 -0.13485405 0.3252111
0002f0 70 9f b8 bb d7 19 c0 bd ab 71 fa 3d 90 2d 12 3e
       -0.005634241 -0.093799286 0.12228712 0.14275193
000300 45 ef e7 bd c4 9c 0a be a8 2d 13 be a1 58 d2 bd
       -0.11324934 -0.13536364 -0.14372885 -0.10270811
000310 5e 7b d5 3d 66 8d 93 3d e5 b8 8a 3b 45 b5 d6 3d
       0.10423921 0.07204704 0.004233467 0.10483793
000320 2a 9d b2 3d 48 ee d3 bc 7a 4e c0 3d e2 17 d4 3d
       0.08721383 -0.025870457 0.09389968 0.10356118
000330 6d 20 19 3e bc e2 37 3d 87 2d ad 3d 69 1d 4c 3e
       0.14953776 0.044893965 0.08455949 0.19933094
000340 48 58 41 be d4 a3 be 3d ab d3 01 3e e4 b3 3e 3e
       -0.18881333 0.093085915 0.12678401 0.1862331
000350 96 f4 bc bd 91 41 2e 3d 09 77 34 be 7b 24 95 bb
       -0.092263386 0.042542998 -0.17623533 -0.004551468
000360 42 f1 16 3e 86 2b 02 3e 0f 02 a8 3d fc 3b de be
       0.1474047 0.12711915 0.08203518 -0.4340514
000370 1e d4 a6 3c de 04 e8 bd a3 45 91 be 50 d2 f2 bd
       0.020364817 -0.11329053 -0.2837344 -0.1185652
000380 59 86 7e 3d fc 26 82 bd 7d 08 18 3d 77 69 07 3e
       0.062139843 -0.06355092 0.03711747 0.13223825
000390 88 45 e9 bd 94 02 67 bd a2 ad 25 be 28 e0 99 bd
       -0.11390215 -0.056398943 -0.16179517 -0.075134575
0003a0 25 23 dc 3d 2c ad 24 be 87 e6 82 3e ad 67 fb bd
       0.10748891 -0.16081685 0.25566503 -0.12275634
0003b0 3b e9 41 3c 16 1f ea be 54 30 65 be 55 e8 8a bd
       0.011835392 -0.45726842 -0.22381717 -0.06782595
0003c0 b9 81 cd bd b8 64 26 be 8b 66 79 bc 77 f3 0d 3e
       -0.10034508 -0.16249359 -0.015222202 0.13862406
0003d0 e7 7f b4 3c c8 dd c0 3d be 89 b0 3d 3d cb 15 3d
       0.022033645 0.094173014 0.08620022 0.036570776
0003e0 3f 17 ac 3d b8 ab cd 3c 6d 62 ff 3d f8 96 f3 bd
       0.08402871 0.025106296 0.12469945 -0.118940294
0003f0 b2 d0 03 3e 9a 42 1a 3d 67 fa f5 3c 06 6d b2 3d
       0.1287258 0.037661172 0.030026628 0.08712201
