Make-Prediction/Graph_Own_0.5_model.pth (torch, 822448 bytes, 4 tensors)

bias f4 [112]
-0.04175625 -0.0062175626 -0.0022233091 -0.0056439 0.00165376 -0.037379764 0.024580339 0.13038926
0.118698664 -0.005793239 0.033075042 -0.006072437 -0.006427097 -0.0059554554 0.040689923 0.030879589
-0.0052422215 -0.0061442023 -0.0052023362 0.0007050372 -0.010709302 -0.010364833 0.0034605865 -0.008076262
0.056541666 -0.11809813 0.15876026 -0.005129185 0.06661672 0.027567023 -0.0014306405 -0.0079802135
0.02454025 0.06575916 -0.003131709 0.08459343 0.09716662 -0.006008424 0.07115383 0.013362263
-0.0054826494 -0.0060909158 -0.010379813 0.15171218 -0.008115258 0.047202118 -0.0032698552 0.032307226
0.07147159 0.02224283 -0.0061696325 0.010723278 -0.0068424535 -0.006988211 0.0042177825 -0.011264728
0.0034425976 0.18801565 -0.037642606 -0.0047567417 -0.001754679 0.015303952 0.007270825 0.018725384
0.08259969 0.016021393 -0.0056304066 -0.008749068 -0.0071653444 -0.008210157 0.04482186 0.11325326
0.00061077374 0.033049684 -0.005779894 -0.005912765 0.03350103 -0.01656467 -0.012059175 0.07131201
0.0028663592 -0.005831497 -0.0066955797 0.015472126 0.0005723285 0.03283672 -0.042141564 -0.0053714765
-0.00481184 -0.0051122047 0.01881064 0.018267127 0.03727091 0.1200772 0.13401964 0.0053090565
-0.0032146142 0.013273836 -0.00510971 0.005911797 -0.005927733 0.034005783 -0.0062818835 -0.0053039044
-0.042374395 -0.006478783 0.010779156 -0.005823431 0.023847552 0.0001157434 -0.0063024694 0.053995743
00000000: 9a08 2bbd b2bc cbbb f0b4 11bb 77f0 b8bb
00000010: fac2 d83a 861b 19bd b55c c93c c384 053e
00000020: 4918 f33d 36d5 bdbb b279 073d 4bfb c6bb
00000030: 669a d2bb fb25 c3bb 7aaa 263d 31f7 fc3c
00000040: f1c6 abbb 4e55 c9bb 5c78 aabb 3fd2 383a
00000050: 1176 2fbc 43d1 29bc 02cb 623b 4c52 04bc
00000060: 3c98 673d 6fdd f1bd 0d92 223e b912 a8bb
00000070: 596e 883d 3dd4 e13c 5484 bbba 71bf 02bc
00000080: a208 c93c bdac 863d 5c3d 4dbb 523f ad3d
00000090: 4bff c63d 50e2 c4bb 19b9 913d 65ed 5a3c
000000a0: cca7 b3bb 4e96 c7bb 1710 2abc 705a 1b3e
000000b0: dcf5 04bc 0257 413d 114b 56bb 9554 043d
000000c0: b25f 923d 9836 b63c a12a cabb b0b0 2f3c
000000d0: a936 e0bb 5dfd e4bb 5335 8a3b b28f 38bc
000000e0: 349d 613b 2d87 403e 222f 1abd 71de 9bbb
000000f0: 42fd e5ba 6dbd 7a3c 1a40 ee3b fa65 993c
00000100: 072a a93d 4c3f 833c 467f b8bb 4058 0fbc
00000110: 44cb eabb e583 06bc 2097 373d 53f1 e73d
00000120: 551c 203a 1b5f 073d 4465 bdbb debf c1bb
00000130: 6038 093d a1b2 87bc d993 45bc 080c 923d
00000140: 87d9 3b3b 2416 bfbb 9866 dbbb cd7e 7d3c
00000150: 5108 163a cc7f 063d a29c 2cbd 3603 b0bb
00000160: a4ac 9dbb 4884 a7bb c518 9a3c f1a4 953c
00000170: 62a9 183d 09eb f53d 723c 093e 98f7 ad3b
00000180: 47ac 52bb 817a 593c 5b6f a7bb bfb7 c13b
00000190: 6e3d c2bb a649 0b3d 42d8 cdbb 60cc adbb
000001a0: c690 2dbd f94b d4bb 0f9b 303c 7bd2 bebb
000001b0: f15b c33c 44bb f238 f284 cebb a42a 5d3d

weight f4 [112, 1792]
0.007822862 0.043648444 0.009300381 0.048167918 0.0027326448 0.056703705 0.0427361 0.014184855
-0.007843389 -0.036227033 0.051702283 -0.0225242 -0.032901213 -0.0010646491 0.054022886 0.1373872
0.026297266 0.017921379 0.010330342 0.008567606 -0.0003046784 0.023887131 0.0018177897 0.016309258
0.23697877 -0.029503476 0.054992117 -0.043859933 -0.0060336594 -0.105784096 0.0010057023 0.040566668
-0.036696915 -0.020728217 0.021717865 -0.012590459 -0.008076383 -0.0556589 0.014147786 0.02233324
-0.0683529 -0.015128742 0.026519481 -0.028751818 -0.014638214 0.06472982 -0.03802668 0.011113466
0.054829516 0.0003055394 0.052126464 -0.005275481 -0.035875313 0.038396094 -0.007184753 0.09797104
-0.03212169 0.14460804 0.029336495 0.03707372 -0.006738726 0.07497147 0.14791663 0.032901973
0.05508598 -0.047466848 -0.004180626 0.014381633 -4.866181e-05 0.16477701 -0.007818109 0.032521576
-0.006673935 0.019249156 0.023339568 -0.080007896 0.020495925 0.0052370494 -0.009493391 0.009870307
-0.06469645 0.05023418 0.038269844 0.1566233 -0.061419982 0.0632392 0.028933236 -0.028252639
-0.002593598 -0.075105555 0.009459311 -0.044749726 0.09198507 0.034930553 -0.023841202 -0.03722827
-0.06286048 -0.03518769 0.021468718 0.017750278 0.03218272 -0.01865273 0.021580426 0.0022438145
0.008949952 0.050761115 0.040668584 -0.057728175 -0.033639062 0.013290939 -0.005126841 0.09540843
0.034881424 -0.104862586 -0.018822046 0.022471132 0.00070845126 -0.0006168294 -0.078121334 0.015517296
-0.08052156 0.0311071 0.051321898 0.05738012 0.026591782 0.06321277 -0.047974966 0.047868386
-0.040234562 -0.021051472 0.0057631694 -0.045951232 -0.02746815 0.0017363328 -0.027919643 -0.04509867
0.0343434 0.024223248 -0.039006058 -0.013648774 -0.043185145 -0.060874086 -0.0061201546 -0.013522198
0.021229124 0.015437505 -0.04854513 -0.005064297 0.014101489 -0.02840744 0.019102419 -0.021538997
-0.04894357 -0.015146281 -0.022923293 -0.028857704 -0.011681875 -0.013081632 -0.017505402 0.04065429
0.04223376 0.037868466 -0.039212532 -0.04859525 0.0019461729 0.047565244 0.04175228 0.036819387
-0.01982864 -0.08181608 0.0004925291 0.097189896 0.020749679 -0.039296173 0.22328569 -0.021617696
-0.009675138 0.09645409 -0.007664616 -0.03703133 0.00034829506 0.07156488 0.015325168 0.045476336
-0.033973433 -0.10090362 -0.00266946 -0.0520649 0.0145718455 0.08190199 0.020887412 0.047909956
-0.006114255 -0.0050681266 0.15675953 0.02690895 -0.020621272 -0.012021356 -0.0073959767 0.0034353188
-0.054334406 -0.017984882 -0.081149355 -0.0052128923 -0.07764125 -0.030501407 0.034235034 0.04272096
0.049221642 -0.059365094 -0.055960584 -0.07390629 0.047573816 -0.048239663 0.05521095 0.09893623
0.021379992 0.01041947 0.08607462 0.026008679 -0.054924857 -0.021526266 -0.1567627 -0.044271953
0.0042647086 0.17745511 0.028869435 -0.09357444 0.012116859 0.0168805 -0.0725181 0.019567281
-0.038031075 -0.019692522 -0.039316732 -0.044658963 -0.04566022 -0.09097364 -0.019879596 0.07721516
0.036551204 -0.025762713 -0.1274965 0.0084437635 -0.00018474553 0.016000684 0.022009375 0.049054727
0.09357943 0.028920358 0.015269385 -0.020874152 0.019407712 0.022848822 -0.032734446 0.06256669
00000000: 762b 003c b6c8 323d a060 183c b94b 453d
00000010: 2c16 333b 2542 683d 0c0c 2f3d 9867 683c
00000020: 8f81 00bc cc62 14bd c6c5 533d ac84 b8bc
00000030: 6cc3 06bd b28b 8bba 1a47 5d3d 3baf 0c3e
00000040: 5d6d d73c dbcf 923c 9840 293c 255f 0c3c
00000050: 3ebd 9fb9 f2ae c33c e742 ee3a fe9a 853c
00000060: 90aa 723e 46b1 f1bc 6a3f 613d 79a6 33bd
00000070: 01b6 c5bb 55a5 d8bd c5d1 833a 3c29 263d
00000080: 814f 16bd 39ce a9bc aae9 b13c 3648 4ebc
00000090: ce52 04bc 96fa 63bd 1ecc 673c 33f4 b63c
000000a0: 9bfc 8bbd 8bde 77bc 623f d93c ef88 ebbc
000000b0: 1fd5 6fbc 1191 843d ddc1 1bbd 4115 363c
000000c0: ea94 603d ce30 a039 8f82 553d f1dd acbb
000000d0: fef1 12bd 3945 1d3d 146e ebbb 0aa5 c83d
000000e0: 0992 03bd 2114 143e 1753 f03c 9dda 173d
000000f0: 88d0 dcbb a48a 993d 7577 173e 38c4 063d
00000100: d6a1 613d 996c 42bd a2fd 88bb f1a0 6b3c
00000110: 381a 4cb8 4ebb 283e 8717 00bc 5835 053d
00000120: 06b1 dabb 68b0 9d3c 9f32 bf3c 2edb a3bd
00000130: 12e7 a73c 8e9b ab3b 2b8a 1bbc 11b7 213c
00000140: 937f 84bd 5bc2 4d3d d7c0 1c3d dc61 203e
00000150: 8593 7bbd 8e83 813d 6505 ed3c 1472 e7bc
00000160: 5bf9 29bb f1d0 99bd 3afb 1a3c 7d4b 37bd
00000170: ab62 bc3d 5713 0f3d a04e c3bc ac7c 18bd
00000180: ffbc 80bd f820 10bd 2adf af3c 0869 913c
00000190: 07d2 033d 9ccd 98bc 6fc9 b03c f60c 133b
000001a0: d2a2 123c e3ea 4f3d 1a94 263d 6174 6cbd
000001b0: 1dc9 09bd 3dc2 593c 0fff a7bb 7f65 c33d
000001c0: d3df 0e3d 32c2 d6bd b130 9abc 6115 b83c
000001d0: 5cb7 393a b8b2 21ba 14fe 9fbd 423c 7e3c
000001e0: 7de8 a4bd 51d4 fe3c e936 523d 6b07 6b3d
000001f0: 02d7 d93c b275 813d 6681 44bd a411 443d
00000200: ffcc 24bd 2374 acbc f8d8 bc3b 5c37 3cbd
00000210: e304 e1bc a995 e33a bcb7 e4bc 62b9 38bd
00000220: aaab 0c3d d56f c63c d1c4 1fbd 1b9f 5fbc
00000230: e8e2 30bd 1b57 79bd 948b c8bb 368c 5dbc
00000240: b3e8 ad3c 97ed 7c3c 42d7 46bd 67f2 a5bb
00000250: ef09 673c b8b6 e8bc ad7c 9c3c 8d72 b0bc
00000260: 0e79 48bd 1b28 78bc a1c9 bbbc fe66 ecbc
00000270: 5665 3fbc 5754 56bc 7d67 8fbc 1d85 263d
00000280: 4ffd 2c3d f71b 1b3d 529d 20bd d00b 47bd
00000290: ba16 ff3a c6d3 423d 7004 2b3d edcf 163d
000002a0: ac6f a2bc 308f a7bd 121d 013a 7f0b c73d
000002b0: 3bfb a93c 06f5 20bd 01a5 643e 9817 b1bc
000002c0: 7884 1ebc b989 c53d 7627 fbbb 2aae 17bd
000002d0: 5f9b b639 9c90 923d 6a16 7b3c 6545 3a3d
000002e0: ba27 0bbd 8fa6 cebd 1bf2 2ebb 0142 55bd
000002f0: c0be 6e3c 3bbc a73d 141c ab3c 3b3d 443d
00000300: 175a c8bb 8712 a6bb 9285 203e 2970 dc3c
00000310: f1ed a8bc 39f5 44bc f359 f2bb 1623 613b
00000320: c18d 5ebd 0855 93bc a231 a6bd e9d0 aabb
00000330: 6002 9fbd 16de f9bc 093a 0c3d 2cfc 2e3d
00000340: a29c 493d d028 73bd ed36 65bd 2e5c 97bd
00000350: c3dc 423d f496 45bd e124 623d 149f ca3d
00000360: 1825 af3c 6db6 2a3c e447 b03d 2710 d53c
00000370: e3f8 60bd da57 b0bc 6786 20be 8256 35bd
00000380: f8be 8b3b cbb6 353e 987f ec3c f5a3 bfbd
00000390: ca85 463c f948 8a3c 5f84 94bd 904b a03c
000003a0: 79c6 1bbd 3652 a1bc 950a 21bd 51ec 36bd
000003b0: 3606 3bbd 6350 babd 89da a2bc fb22 9e3d
000003c0: b7b6 153d 530c d3bc 718e 02be b657 0a3c
000003d0: 40b8 41b9 de13 833c 014d b43c 9ced 483d
000003e0: 92a6 bf3d 63ea ec3c 712c 7a3c 4500 abbc
000003f0: ecfc 9e3c 742d bb3c 8e14 06bd f722 803d

bias f4 [28]
-0.13563183 0.004633648 0.12664413 -0.004146714 0.122142866 -0.081519805 0.0039597712 0.025338676
-0.05832919 -0.037994504 0.038563054 -0.04990357 -0.025752898 -0.14279144 0.14354806 0.05933116
0.08230464 -0.086974256 0.08602692 0.09276034 -0.05743597 -0.034114424 0.002805035 0.0057744454
-0.09212601 0.08060219 -0.03391364 0.0011997467
00000000: 12e3 0abe dbd5 973b 00af 013e 29e1 87bb
00000010: 0a26 fa3d dbf3 a6bd f8c0 813b 0e93 cf3c
00000020: 97ea 6ebd 20a0 1bbd 4bf4 1d3d b067 4cbd
00000030: bef7 d2bc eb37 12be 43fe 123e 3b05 733d
00000040: 568f a83d 8f1f b2bd e22e b03d 22f9 bd3d
00000050: fb41 6bbd 91bb 0bbd aed4 373b 8f37 bd3b
00000060: 90ac bcbd c312 a53d 07e9 0abd d240 9d3a

weight f4 [28, 112]
0.106784835 -0.015795698 -0.3859335 0.14944382 -0.24583228 0.05408706 0.04675788 -0.15776445
0.27069154 -0.057052396 0.09359199 -0.032730933 -0.009514256 0.02830654 -0.2388498 -0.038206544
-0.18551292 0.118662626 -0.06757225 0.26237312 0.029971665 -0.11184579 -0.16387273 0.11598573
0.1050139 0.0018814238 0.05672827 -0.13417548 -0.111540295 0.15152425 0.13424425 -0.020786924
-0.1491573 0.41749886 -0.40355083 -0.21064748 -0.06608071 0.1555175 0.27953255 0.046422493
0.018638398 0.12915151 0.032165434 0.07731508 -0.667394 -0.11123666 -0.106715195 -0.22215416
0.26426443 0.014897045 -0.0057788375 -0.095674485 -0.07701096 0.15592828 -0.017608592 0.1725969
0.19791846 -0.17743534 0.26028502 -0.0067078494 0.008380396 0.034027725 0.34780762 0.07965118
-0.13266143 -0.02561769 -0.07819205 0.07945614 -0.21944599 -0.11276215 0.17551066 -0.027885994
0.25803483 0.20344621 0.16755906 -0.061296735 0.21546087 0.050075352 0.6796896 -0.31238306
-0.2831339 0.09895051 0.011677141 0.14171632 -0.3108542 -0.083025776 0.043665655 -0.008587536
0.18853647 -0.13075508 -0.050323077 -0.23181494 0.2373711 0.1125169 0.12196777 0.19178316
0.23755017 -0.060476422 0.10038514 -0.015236317 -0.064605445 -0.2761031 0.17949757 0.124899685
0.253548 -0.16598547 -0.32266837 -0.014552882 -0.14923462 -0.049318347 -0.0095530115 -0.11355892
-0.054184303 0.15664831 0.087665014 -0.1601015 -0.0716846 -0.05517718 0.18713507 -0.2424826
-0.2090383 -0.12141893 0.13811636 -0.08375303 -0.00960526 -0.022462295 0.007441022 -0.06811721
-0.1790699 -0.19835751 -0.08544555 0.16374075 0.26013952 0.09346094 0.10571423 0.17411867
-0.22751033 -0.40661845 -0.47792128 -0.19103342 0.13054948 -0.36189824 -0.11333945 -0.12646031
0.2833334 0.8054354 -0.3627515 -0.383195 0.00014407017 -0.016216194 -0.21288165 -0.18249804
0.04966522 0.1900856 -0.13550425 -0.17887442 -0.5370247 0.098668344 -0.02832285 -0.12228509
-0.020292966 -0.070266426 -0.16069603 0.054073445 -0.14212364 0.06691183 -0.017930672 0.013357747
-0.29336172 0.0045406646 0.18869416 -0.009884083 0.21444742 -0.21793684 0.0856801 -0.24835597
0.012989844 0.26991358 0.16158445 -0.08015887 -0.06096524 -0.19624026 -0.114181064 0.2193446
-0.017699907 0.40071633 0.20783234 -0.18545814 0.04468756 0.06301266 0.5520866 0.33921486
-0.19166404 -0.10050741 -0.013115337 0.08080311 -0.24943264 0.18106012 0.2863952 -0.089085065
-0.032600697 0.039505523 -0.3521127 -0.15337212 0.27391207 0.32836518 -0.22728008 -0.12698792
-0.07185092 0.17408597 -0.10961252 0.115976274 -0.060891572 0.1010749 -0.026784487 0.008843203
0.13930526 -0.050022073 -0.20457415 -0.031199291 -0.13812998 0.091999516 0.18280596 -0.29705805
0.030379618 -0.15197515 0.08307282 0.12493582 -0.05019188 -0.19713497 -0.28700078 0.10831435
0.15547977 0.063654885 -0.2116945 -0.06542614 0.015191405 -0.068452775 0.16260664 0.33366507
0.033976857 -0.1917421 0.11491334 -0.024009975 -0.17052704 0.009085494 0.18551698 -0.2041528
0.074951954 -0.11203644 -0.07976115 0.10958284 -0.044181954 0.26599973 0.059861336 -0.122129485
00000000: 02b2 da3d fb65 81bc 1399 c5be cd07 193e
00000010: 75bb 7bbe 658a 5d3d 3185 3f3d 018d 21be
00000020: 1598 8a3e c6af 69bd 28ad bf3d df10 06bd
00000030: afe1 1bbc 1ee3 e73c 0b95 74be 777e 1cbd
00000040: 19f7 3dbe 6405 f33d 5263 8abd c555 863e
00000050: 2387 f53c 680f e5bd 41ce 27be ed89 ed3d
00000060: 8711 d73d 1b9a f63a e75b 683d 4c65 09be
00000070: 3d6f e4bd 2c29 1b3e 5377 093e 5749 aabc
00000080: b1bc 18be 69c2 d53e 379e cebe f9b3 57be
00000090: 5355 87bd fb3f 1f3e e41e 8f3e 8325 3e3d
000000a0: 8eaf 983c 4b40 043e e7bf 033d 5e57 9e3d
000000b0: 55da 2abf 0cd0 e3bd 7f8d dabd 617c 63be
000000c0: ab4d 873e bc12 743c 675c bdbb fcf0 c3bd
000000d0: ecb7 9dbd aaab 1f3e e53f 90bc 3ebd 303e
000000e0: 23ab 4a3e 9cb1 35be 1444 853e 85cd dbbb
000000f0: ee4d 093c a860 0b3d d713 b23e 2820 a33d
00000100: 66d8 07be 31dc d1bc 2723 a0bd e7b9 a23d
00000110: 73b6 60be d8ef e6bd 11b9 333e 2b71 e4bc
00000120: 241d 843e 3454 503e 9a94 2b3e 4912 7bbd
00000130: c6a1 5c3e d01b 4d3d 2300 2e3f acf0 9fbe
00000140: edf6 90be 91a6 ca3d 7b51 3f3c 151e 113e
00000150: 4828 9fbe 6b09 aabd c2da 323d bdb2 0cbc
00000160: b40f 413e a9e4 05be 921f 4ebd e560 6dbe
00000170: 6911 733e 436f e63d 3dca f93d ce62 443e
00000180: 5a40 733e 20b6 77bd b996 cd3d bfa1 79bc
00000190: dc4f 84bd 635d 8dbe 36ce 373e 68cb ff3d
000001a0: 0bd1 813e 18f8 29be ca34 a5be 366f 6ebc
000001b0: f6d0 18be 0902 4abd 3c84 1cbc 9491 e8bd
000001c0: 5cf0 5dbd 6a68 203e b789 b33d a6f1 23be
000001d0: 60cf 92bd 7701 62bd 56a0 3f3e 5c4d 78be
000001e0: 230e 56be 7daa f8bd 606e 0d3e b586 abbd
000001f0: 615f 1dbc d902 b8bc d1d3 f33b 0981 8bbd
00000200: 1a5e 37be 3b1e 4bbe 14fe aebd a8ab 273e
00000210: 0231 853e 7368 bf3d b480 d83d 2a4c 323e
00000220: 78f8 68be 4b30 d0be 19b2 f4be 449e 43be
00000230: c3ae 053e ba4a b9be 831e e8bd d07e 01be
00000240: 1311 913e 0431 4e3f 91ba b9be 2332 c4be
00000250: 8b11 1739 d3d7 84bc a6fd 59be c4e0 3abe
00000260: c26d 4b3d cda5 423e a0c1 0abe db2a 37be
00000270: 737a 09bf a112 ca3d 5205 e8bc 9b70 fabd
00000280: 6f3d a6bc d8e7 8fbd 808d 24be 1e7c 5d3d
00000290: dc88 11be 1209 893d 58e3 92bc 74da 5a3c
000002a0: 8233 96be dbc9 943b 0b39 413e d9f0 21bc
000002b0: 1b98 5b3e d62a 5fbe 0c79 af3d 0751 7ebe
000002c0: 5bd3 543c 1d32 8a3e 6576 253e 552a a4bd
000002d0: b0b6 79bd 35f3 48be c3d7 e9bd df9b 603e
000002e0: 65ff 90bc b12a cd3e 00d2 543e bde8 3dbe
000002f0: 4e0a 373d c80c 813d 8c55 0d3f 92ad ad3e
00000300: 9443 44be d4d6 cdbd b6e1 56bc 1a7c a53d
00000310: 456b 7fbe d367 393e 64a2 923e 3b72 b6bd
00000320: 4f88 05bd 8bd0 213d 1e48 b4be 950d 1dbe
00000330: 343e 8c3e 7b1f a83e 1cbc 68be 1f09 02be
00000340: 9326 93bd 9843 323e 877c e0bd f884 ed3d
00000350: 7169 79bd 5b00 cf3d 246b dbbc 15e3 103c
00000360: 0aa6 0e3e f2e3 4cbd e37b 51be a895 ffbc
00000370: f271 0dbe 3e6a bc3d 7c31 3b3e fe17 98be
00000380: adde f83c 609f 1bbe 1522 aa3d 5ade ff3d
00000390: 0096 4dbd c0dd 49be c4f1 92be ead3 dd3d
000003a0: 1736 1f3e 7e5d 823d 71c6 58be 24fe 85bd
000003b0: 5fe5 783c f830 8cbd 5b82 263e 26d6 aa3e
000003c0: 512b 0b3d 0b58 44be af57 eb3d 91b0 c4bc
000003d0: a49e 2ebe 53db 143c 2af8 3d3e 6e0d 51be
000003e0: 6980 993d 5c73 e5bd d059 a3bd f86c e03d
000003f0: 23f8 34bd 1e31 883e 2931 753d 061f fabd
