trained-models/Graph_Comparison_SkipGNN_state_dict.pth (torch, 818416 bytes, 4 tensors)

conv1.bias f4 [112]
-0.020550108 -0.0059056156 0.26092127 -0.006007683 0.050643694 0.060215417 -0.026278088 0.0068103736
0.10895477 -0.048399914 0.06287918 -0.003493065 -0.0053919964 -0.0024657717 -0.0057791583 0.0013460943
-0.005979267 -0.0062396694 -0.031735662 0.0030588068 -0.0062235054 -0.007109702 -0.008147316 0.042061035
-0.005977566 -0.013032879 -0.02423744 -0.013459834 0.08919818 0.025495514 -0.017622612 0.00836545
-0.0056407168 -0.0062671276 0.004696961 0.3539988 -0.005974337 -0.0064395475 -0.005998874 -0.023925325
0.00290372 -0.006661785 0.000609207 -0.024054054 0.00072085444 -0.005651575 -0.009715792 -0.0050472976
-6.0547927e-06 -0.010694581 -0.0053378106 0.010634519 -0.0255442 -0.0060756532 -0.006104682 -0.000811249
0.11902983 -0.023607317 -3.2217165e-05 -0.025143122 -0.023297362 0.0068812943 -0.005932687 0.040687773
-0.005995442 -5.460497e-06 -0.0061683967 -0.005776768 0.020285359 -0.00538633 -0.011116813 -0.0049843127
-0.0065300176 -0.037792005 -0.0064606154 -0.002442067 -0.0065939208 -0.007947811 -0.003829034 -0.0035338495
-0.001634621 0.001201357 0.041782007 -0.00601175 -0.011073379 -0.006337087 -0.004509752 -0.00548527
-0.004639666 -0.005839374 0.32516316 -0.003510823 -0.0020989608 -0.032667026 -0.008373988 -0.0022557296
0.019799888 -0.0029137647 -0.006078886 -0.00238584 -0.015686449 -0.03552818 -0.0059249946 -0.0066901036
-0.004644071 0.0014731403 -0.043198153 -0.0035322297 -0.005746284 -0.0030114 -0.00530629 -0.023195574
00000000: b358 a8bc e583 c1bb 7997 853e 19dc c4bb
00000010: c36f 4f3d 71a4 763d 2545 d7bc 8e29 df3b
00000020: ae23 df3d fd3e 46bd cdc6 803d e8eb 64bb
00000030: 58af b0bb c998 21bb 185f bdbb 6e6f b03a
00000040: baed c3bb 2476 ccbb 41fd 01bd 4376 483b
00000050: 8cee cbbb 81f8 e8bb 527c 05bc 3148 2c3d
00000060: 75df c3bb db87 55bc 998d c6bc a386 5cbc
00000070: 89ad b63d f8db d03c 4c5d 90bc 3e0f 093c
00000080: c3d5 b8bb 7a5c cdbb f7e8 993b 553f b53e
00000090: 5fc4 c3bb d702 d3bb 3492 c4bb 0bff c3bc
000000a0: 564c 3e3b 1a4b dabb 31b3 1f3a 020d c5bc
000000b0: b9f7 3c3a d930 b9bb fc2e 1fbc cd63 a5bb
000000c0: 462a cbb6 5338 2fbc cde8 aebb 683c 2e3c
000000d0: 1242 d1bc 4616 c7bb c909 c8bb 00aa 54ba
000000e0: e9c5 f33d 2264 c1bc eb20 07b8 f3f8 cdbc
000000f0: 1cda bebc 7b7c e13b fc66 c2bb 39a8 263d
00000100: 6a75 c4bb 5039 b7b6 4320 cabb 0b4b bdbb
00000110: 7b2d a63c d07f b0bb 4b23 36bc 7253 a3bb
00000120: c2f9 d5bb cacb 1abd 92b3 d3bb 160b 20bb
00000130: d111 d8bb 8937 02bc 88f0 7abb 2898 67bb
00000140: c740 d6ba da76 9d3a 9c23 2b3d 37fe c4bb
00000150: 1e6d 35bc 57a7 cfbb 8bc6 93bb c8bd b3bb
00000160: 5708 98bb 3858 bfbb c97b a63e d615 66bb
00000170: b88e 09bb dccd 05bd 0d33 09bc ddd4 13bb
00000180: 6033 a23c dcf4 3ebb 6431 c7bb c15b 1cbb
00000190: de80 80bc ff85 11bd 7526 c2bb a838 dbbb
000001a0: 4b2d 98bb 6316 c13a 8cf0 30bd fb7c 67bb
000001b0: 534b bcbb e95a 45bb 63e0 adbb a504 bebc

conv1.lin.weight f4 [112, 1792]
-0.038043093 -0.029145114 0.012458636 -0.018676806 0.0048761247 0.013599061 0.012002839 0.0384098
0.04835134 0.05698774 0.010506637 -0.005780762 0.0625874 -0.006203638 -0.05543732 -0.06668728
0.02326485 -0.022987455 -0.012052751 0.020541394 -0.06894325 0.04015594 0.08876934 0.0497415
0.12017916 -0.051145095 -0.024539188 0.011489986 -0.010015831 0.004556753 0.017717304 0.012726792
0.0036728864 0.023584893 -0.008832994 -0.0700452 0.06592197 0.09900272 0.06898972 0.03741995
0.018323459 0.034670524 -0.023490977 -0.045074053 -0.046764124 -0.021288265 -0.018196752 0.05724556
0.008387142 0.0025676768 -0.037196033 -0.011558388 0.010361493 0.04761476 0.032615043 0.03413816
-0.011147076 0.0437722 -0.046536565 -0.025374249 -0.016516631 -0.030477757 0.08824378 0.039949402
0.037448727 -0.014239839 0.03858373 0.0452152 -0.0912975 0.15270811 0.027574621 -0.068264015
-0.0012631177 0.009749507 0.0471748 0.090021804 -0.012933918 -0.050347075 -0.044641864 -0.02737863
0.022668744 0.04577672 -0.052129935 -0.005950624 -0.030826814 0.0022168332 0.0139401965 0.027020397
-0.029672442 0.016194997 0.027167344 -0.04740954 0.07247902 -0.033092234 -0.0042454908 -0.022761986
0.021882394 -0.023440868 -0.013432735 0.053469617 0.013322108 0.03051556 -0.049201727 -0.03992622
-0.047147807 0.034327637 -0.00012001939 0.03510672 -0.06116954 0.0346956 -0.026021745 -0.09083058
0.004984099 -0.030922374 0.026398735 0.027243381 -0.01061366 -0.05384141 -0.057210185 0.025244415
0.064615145 -0.027628371 0.02361529 0.081841275 -0.0042451876 0.035037898 0.047869563 -0.010856366
0.03212572 -0.1503953 -0.025086949 -0.004864747 0.020943066 -0.0052657775 -0.0003711192 0.018269392
-0.013153907 0.002000465 0.016982181 -0.029918687 -0.04919268 -0.06419218 0.04350261 -0.018705625
-0.0053069657 0.10566388 -0.0061697788 -0.01879266 0.014650799 -0.061312936 -0.007885141 0.07262024
-0.006297846 0.0307872 0.0181214 0.032876175 -0.050340716 0.05011099 0.020371526 0.025856484
0.01279581 -0.014578753 -0.0065905717 -0.038329072 0.019117186 0.01692116 -0.004395986 0.0018882419
0.0050113667 0.08885083 -0.08097134 0.09618932 -0.020650705 -0.028854892 0.04132801 0.062289722
-0.0025399046 0.0679722 -0.00776118 -0.04696343 -0.011183654 0.0154695045 0.052511502 0.028004562
0.049142517 0.05465776 0.031526435 -0.10364083 -0.0043465276 -0.074462324 -0.0048368117 0.008775416
0.016640574 0.017920451 0.0014778088 -0.053890325 0.036577784 -0.011114707 0.03427029 0.097731605
-0.04570668 0.015234529 -0.01844391 0.0012387987 0.014487187 -0.038789555 0.032187052 0.0285192
0.020890193 0.023012498 0.0117309475 -0.05151756 -0.04759056 -0.082920976 -0.103794426 -0.094787
-0.0018438165 -0.10451452 0.045618363 -0.012018543 -0.031143947 -0.10292551 -0.20742513 -0.02098816
-0.016059536 -0.028545842 -0.042992815 0.059236284 -0.013264771 -0.0032142035 -0.07123154 0.04378591
-0.03349387 -0.049804837 -0.040807586 0.017691908 -0.04276243 0.044608656 0.060631473 -0.018487036
0.018128946 -0.037528045 -0.0018821852 0.04041818 -0.043152303 -0.019749204 0.026207251 0.013818794
0.14315453 -0.009334036 0.09980233 0.044558033 -0.021446362 0.03940898 -0.025650535 0.0382781
00000000: 13d3 1bbd bcc1 eebc 4f1f 4c3c 1a00 99bc
00000010: e6c7 9f3b 99ce 5e3c 8ea7 443c 9853 1d3d
00000020: 0e0c 463d fa6b 693d 0824 2c3c 8c6c bdbb
00000030: d32d 803d e347 cbbb 3e12 63bd 5793 88bd
00000040: ed95 be3c 3050 bcbc e778 45bc 6d46 a83c
00000050: 1e32 8dbd 8e7a 243d b3cc b53d bebd 4b3d
00000060: 7e20 f63d 857d 51bd 6806 c9bc 7f40 3c3c
00000070: 7119 24bc d150 953b e123 913c 0984 503c
00000080: cfb4 703b 1b35 c13c 43b8 10bc dc73 8fbd
00000090: 1902 873d f0c1 ca3d 7b4a 8d3d a945 193d
000000a0: 141b 963c ae02 0e3d 2670 c0bc 929f 38bd
000000b0: bd8b 3fbd ba64 aebc 5b11 95bc 527a 6a3d
000000c0: 396a 093c 7846 283b de5a 18bd 655f 3dbc
000000d0: 40c3 293c b207 433d 5a97 053d 75d4 0b3d
000000e0: 3aa2 36bc 7a4a 333d 209d 3ebd a8dd cfbc
000000f0: e34d 87bc 7dac f9bc 28b9 b43d fca1 233d
00000100: d663 193d 374e 69bc f909 1e3d 9333 393d
00000110: 2ffa babd 845f 1c3e 2ce4 e13c 01ce 8bbd
00000120: 328f a5ba 65bc 1f3c 5d3a 413d 5a5d b83d
00000130: c9e8 53bc bc38 4ebd 63da 36bd 2649 e0bc
00000140: cdb3 b93c 5f80 3b3d 3386 55bd 74fd c2bb
00000150: 8488 fcbc 4a48 113b 6c65 643c e159 dd3c
00000160: 9f13 f3bc 5fab 843c 0d8e de3c 8130 42bd
00000170: e16f 943d b98b 07bd c21d 8bbb 5877 babc
00000180: b542 b33c 1007 c0bc f914 5cbc f502 5b3d
00000190: f944 5a3c c5fb f93c c087 49bd ad89 23bd
000001a0: 0f1e 41bd 239b 0c3d ebb2 fbb8 10cc 0f3d
000001b0: e98c 7abd f91c 0e3d 8e2b d5bc 6205 babd
000001c0: a751 a33b eb50 fdbc 2942 d83c 832d df3c
000001d0: ebe4 2dbc cf88 5cbd 3a55 6abd 60cd ce3c
000001e0: f254 843d e554 e2bc da74 c13c 669c a73d
000001f0: 371b 8bbb e683 0f3d e012 443d e6de 31bc
00000200: 4296 033d 3a01 1abe 2583 cdbc 7568 9fbb
00000210: cb90 ab3c 8b8c acbb c792 c2b9 b1a9 953c
00000220: 7c83 57bc 3c1a 033b 371e 8b3c 0918 f5bc
00000230: 437e 49bd 3177 83bd cb2f 323d 8a3c 99bc
00000240: 0ee6 adbb 4e66 d83d db2b cabb 11f3 99bc
00000250: e809 703c 4623 7bbd ae30 01bc ecb9 943d
00000260: 295e cebb 7035 fc3c 5573 943c 2ba9 063d
00000270: 1132 4ebd 2e41 4d3d 30e2 a63c fad0 d33c
00000280: 84a5 513c b9db 6ebc b9f5 d7bb f2fe 1cbd
00000290: a59b 9c3c 3f9e 8a3c 340c 90bb e27e f73a
000002a0: 6436 a43b 6df7 b53d 4dd4 a5bd e8fe c43d
000002b0: ab2b a9bc 1861 ecbc 8f47 293d 8223 7f3d
000002c0: 8774 26bb 0235 8b3d 7f51 febb ba5c 40bd
000002d0: a53b 37bc ce73 7d3c 4d16 573d d369 e53c
000002e0: aa49 493d d1e0 5f3d dd21 013d a541 d4bd
000002f0: 516d 8ebb b47f 98bd 1e7e 9ebb c3c6 0f3c
00000300: d051 883c e9cd 923c 09b3 c13a 1abc 5cbd
00000310: 96d2 153d 761a 36bc 015f 0c3d 8227 c83d
00000320: ed36 3bbd 3f9a 793c af17 97bc 305f a23a
00000330: ab5b 6d3c cce1 1ebd 92d6 033d 19a1 e93c
00000340: e921 ab3c b584 bc3c 2933 403c 1404 53bd
00000350: 52ee 42bd 79d2 a9bd 2c92 d4bd b01f c2bd
00000360: 37ac f1ba b50b d6bd 52da 3a3d 6ce9 44bc
00000370: 9721 ffbc 9cca d2bd 4167 54be 5def abbc
00000380: 4a8f 83bc f8d8 e9bc 3c19 30bd bfa1 723d
00000390: 7b54 59bc 63a5 52bb d7e1 91bd db58 333d
000003a0: de30 09bd 2800 4cbd db25 27bd 9fee 903c
000003b0: a827 2fbd 91b7 363d b558 783d 2072 97bc
000003c0: 2883 943c 02b7 19bd a8b3 f6ba 898d 253d
000003d0: 78c0 30bd 15c9 a1bc 97b0 d63c 3968 623c
000003e0: 1a97 123e c9ed 18bc 2a65 cc3d 7c82 363d
000003f0: 48b0 afbc 506b 213d 1221 d2bc 7fc9 1c3d

conv2.bias f4 [28]
0.03266451 -0.08796188 -0.08264766 -0.12338759 0.1086515 -0.12576972 0.10121235 0.2006588
0.28646713 0.15473461 0.11095453 0.24200517 0.1326457 -0.08879259 0.13644871 0.11229768
-0.121788934 0.024731 -0.027462278 -0.27095887 0.074726544 0.055941492 0.11085767 -0.11434827
0.2351952 0.00051804364 0.091483094 0.10370306
00000000: 39cb 053d 5c25 b4bd 2d43 a9bd a2b2 fcbd
00000010: ad84 de3d c7c9 00be 6c48 cf3d 8079 4d3e
00000020: d2ab 923e c072 1e3e 213c e33d 34d0 773e
00000030: 46d4 073e e4d8 b5bd 36b9 0b3e 53fc e53d
00000040: 7a6c f9bd ab98 ca3c 92f8 e0bc 1fbb 8abe
00000050: 3b0a 993d e822 653d 5909 e33d 6d2f eabd
00000060: 03d7 703e 52cd 073a 7d5b bb3d 4562 d43d

conv2.lin.weight f4 [28, 112]
-0.0751553 0.10553632 -0.0041559967 -0.11213325 0.027063407 -0.27141085 0.059437495 0.18589656
-0.32094988 0.24063762 0.39018968 0.020507893 -0.14488108 0.04599873 0.059891988 0.20925452
0.17797254 -0.2041623 -0.14364009 0.076856814 0.18408406 -0.12324291 0.1439565 -0.03771015
-0.09261374 -0.14338078 -0.105730414 0.098898865 0.049257044 0.26319176 0.100647144 -0.13925914
-0.21594259 0.116263956 0.2625711 -0.21728987 0.05610613 -0.0017908871 -0.089272 -0.08211515
-0.1258984 -0.17456344 0.18082929 -0.053034805 -0.10367766 0.17039776 0.01719727 -0.30826163
-0.10645194 0.02688568 -0.00077304547 0.17585598 0.17292042 -0.12856886 -0.08529054 -0.17554545
-0.28600526 -0.17589323 -0.14428528 0.122995466 -0.0623731 0.18890823 -0.024271915 -0.07081238
-0.007635398 0.015128221 -0.2073506 0.10859499 -0.22750829 0.11836595 -0.028213758 0.005751072
0.066704385 0.04638646 0.19957031 -0.11578489 -0.07129924 0.19038606 -0.17843911 0.009339902
-0.18606277 0.110085905 0.0491319 0.050908353 0.089573644 -0.06773999 -0.0018592324 -0.017154992
-0.05526387 -0.10555353 0.3030235 -0.022217521 0.102714255 0.0028012735 -0.1459755 0.089972764
-0.32542217 -0.056316756 0.18642381 0.16868794 -0.08804088 0.11322688 -0.022600831 0.044165574
-0.3003228 0.20568338 -0.15577963 -0.07203614 0.061635982 0.14347018 -0.08746242 0.20267704
0.1360458 0.16963476 -0.15225226 0.021768581 -0.14981772 0.14650927 0.16346978 -0.0718676
-0.017083528 -0.21765336 0.17472984 -0.09551121 0.12990737 -0.059467066 0.034450714 -0.20003138
0.18034239 0.046325635 0.14597121 0.16638438 -0.029830312 -0.09957259 0.12312098 -0.080936156
-0.0755685 -0.08338826 0.051322754 0.1461588 0.02013328 -0.014840885 -0.13221766 -0.050301284
-0.114061415 0.0957926 -0.20155239 0.050090466 0.106034085 -0.11760562 0.0015373699 0.16453853
0.18917832 0.064003125 -0.167512 0.2293847 -0.15111293 -0.19556746 -0.0878143 -0.37931946
0.062227763 -0.11097503 -0.07977297 0.016160484 0.12483153 0.17650384 0.016317477 0.058594923
0.064880006 0.17036314 0.11277436 0.14540437 0.0804461 -0.007629457 0.10301059 0.15499248
-0.17896695 -0.06356423 -0.0806255 0.10603578 -0.06304473 0.045599326 -0.0997758 -0.039820302
0.03369104 0.01484584 0.15742859 0.015711298 -0.19231154 -0.07637991 -0.08341637 -0.15520109
-0.14313024 0.15483254 -0.0994205 0.07468481 -0.5033316 -0.058187727 -0.026361924 0.10992637
-0.18741378 0.15060385 -0.19118157 -0.07079005 -0.14671837 -0.13992551 0.038313463 0.16830668
0.19227475 -0.11094961 -0.16528887 0.07965628 -0.08049569 0.006131296 -0.13543192 -0.20511043
0.1982171 -0.087224804 0.04216501 0.1921577 -0.024230557 0.15158309 -0.079108454 0.114511535
0.13248387 0.049418047 -0.25885192 0.12080096 0.11125727 -0.09340399 0.14338279 -0.21735045
-0.24704592 -0.11139331 0.13048525 -0.124107115 0.19035608 0.008184089 0.17946002 0.07488427
0.18159397 -0.10609075 -0.071673065 0.036797844 0.11311326 -0.013495439 -0.021216493 0.17536743
0.025009207 0.017667532 0.1199462 -0.10006397 -0.03733888 0.03016252 -0.15534738 -0.02936432
00000000: 06eb 99bd 6d23 d83d 072f 88bb 1ea6 e5bd
00000010: 14b4 dd3c 5df6 8abe bb74 733d ab5b 3e3e
00000020: 8b53 a4be b569 763e f1c6 c73e 2b00 a83c
00000030: b55b 14be 2a69 3c3d 4d51 753d d146 563e
00000040: 6f3e 363e ec0f 51be 6316 13be 1b67 9d3d
00000050: 8880 3c3e c766 fcbd 5569 133e f575 1abd
00000060: 46ac bdbd 69d2 12be 3089 d8bd 7d8b ca3d
00000070: c1c1 493d 12c1 863e 1720 ce3d f399 0ebe
00000080: 0e20 5dbe cc1b ee3d b86f 863e 3c81 5ebe
00000090: 8bcf 653d 33bc eaba 3dd4 b6bd fd2b a8bd
000000a0: 83eb 00be c2c0 32be 502b 393e 063b 59bd
000000b0: f454 d4bd c07c 2e3e 4ae1 8c3c 78d4 9dbe
000000c0: 7a03 dabd 5c3f dc3c 34a6 4aba 9713 343e
000000d0: 0d12 313e 8ea7 03be ceac aebd 30c2 33be
000000e0: 486f 92be 5b1d 34be 85bf 13be 0ce5 fb3d
000000f0: f07a 7fbd 2971 413e e5d5 c6bc 1506 91bd
00000100: 5c32 fabb 5cdc 773c b753 54be 0d67 de3d
00000110: eff7 68be d969 f23d 8a20 e7bc 7d73 bc3b
00000120: 4f9c 883d bbff 3d3d 295c 4c3e a120 edbd
00000130: 5605 92bd 90f4 423e beb8 36be 6306 193c
00000140: 3d87 3ebe b874 e13d 883e 493d 4785 503d
00000150: 6372 b73d 44bb 8abd 7db1 f3ba a088 8cbc
00000160: 5e5c 62bd 732c d8bd e525 9b3e 8501 b6bc
00000170: da5b d23d 9295 373b 9a7a 15be a443 b83d
00000180: bc9d a6be 66ac 66bd e2e5 3e3e 88bc 2c3e
00000190: c74e b4bd 7fe3 e73d 6125 b9bc f6e6 343d
000001a0: e9c3 99be aa9e 523e b284 1fbe af87 93bd
000001b0: 0376 7c3d d9e9 123e 7f1f b3bd 928a 4f3e
000001c0: 974f 0b3e bcb4 2d3e 04e8 1bbe 0654 b23c
000001d0: d169 19be 8706 163e 9f64 273e 522f 93bd
000001e0: c1f2 8bbc 86e0 5ebe 61ec 323e 629b c3bd
000001f0: 7006 053e bd93 73bd 311c 0d3d 07d5 4cbe
00000200: adab 383e f3bf 3d3d 7a79 153e ab60 2a3e
00000210: b35e f4bc b7ec cbbd da26 fc3d dbc1 a5bd
00000220: a8c3 9abd 77c7 aabd cf37 523d a7aa 153e
00000230: 8cee a43c 2f27 73bc 1164 07be b808 4ebd
00000240: 0899 e9bd e92e c43d c063 4ebe a92b 4d3d
00000250: 6628 d93d 37db f0bd 9381 c93a ca7c 283e
00000260: f6b7 413e 1214 833d 4488 2bbe d3e3 6a3e
00000270: 59bd 1abe d642 48be fcd7 b3bd 2936 c2be
00000280: 8ae2 7e3d e046 e3bd 0360 a3bd fe62 843c
00000290: aca7 ff3d 6cbd 343e 3bac 853c 3b01 703d
000002a0: cfdf 843d ad73 2e3e 3ef6 e63d e2e4 143e
000002b0: edc0 a43d 8600 fabb 37f7 d23d 59b6 1e3e
000002c0: 1d43 37be f72d 82bd fb1e a5bd 4929 d93d
000002d0: 981d 81bd 5cc6 3a3d 4157 ccbd 9d1a 23bd
000002e0: 9eff 093d f73b 733c f634 213e fbb4 803c
000002f0: 51ed 44be 126d 9cbd 34d6 aabd 09ed 1ebe
00000300: bc90 12be 6c8c 1e3e fa9c cbbd 5af4 983d
00000310: 57da 00bf 4156 6ebd f6f4 d7bc 1421 e13d
00000320: 66e9 3fbe e537 1a3e 1ac5 43be 60fa 90bd
00000330: 573d 16be a248 0fbe 94ee 1c3d 9658 2c3e
00000340: ace3 443e 8d39 e3bd 7c41 29be d522 a33d
00000350: edda a4bd 0ae9 c83b aaae 0abe 7808 52be
00000360: 6cf9 4a3e eba2 b2bd 38b5 2c3d fdc4 443e
00000370: 297f c6bc 9938 1b3e 9d03 a2bd 0685 ea3d
00000380: daa9 073e 946a 4a3d 3d88 84be 7e66 f73d
00000390: dada e33d 974a bfbd f0d2 123e 1e91 5ebe
000003a0: 9bf9 7cbe 2d22 e4bd ed9d 053e df2b febd
000003b0: b4ec 423e 8f16 063c 5ec4 373e ed5c 993d
000003c0: c5f3 393e 1b46 d9bd 54c9 92bd 56b9 163d
000003d0: eda7 e73d f91b 5dbc 36ce adbc 8593 333e
000003e0: 1ce0 cc3c 80bb 903c 5aa6 f53d 57ee ccbd
000003f0: a7f0 18bd 6417 f73c 6213 1fbe 718d f0bc
