trained-models/Graph_Own_0.9_state_dict.pth (torch, 818328 bytes, 4 tensors)

conv1.bias f4 [112]
000000 6f fe 39 bd b6 44 85 3d 93 b7 35 3d aa 63 b5 3d
       -0.045408662 0.06507246 0.044364523 0.088569
000010 7c ec 46 3c 74 94 03 3d 12 1c c9 bb 45 f3 38 3c
       0.012141343 0.032123998 -0.0061373794 0.011288469
000020 e2 ef 8b bb 8c 14 97 bb 64 98 60 bc 19 d5 2d 3d
       -0.0042705396 -0.0046106037 -0.013708208 0.042439554
000030 c4 4b 3b 3c 7e 9d b2 bb 32 4d 68 3d f1 1c b9 bb
       0.011431638 -0.0054509034 0.056714244 -0.005649202
000040 dc 9b bc bb bc 3f ba bb a1 fa c0 3d 54 2c 9a 3c
       -0.0057558846 -0.0056838673 0.09422804 0.018819965
000050 1a e9 8f 3d 84 8f 08 bc f9 a7 f4 3b d7 a5 b6 bb
       0.070268825 -0.008334998 0.007466313 -0.005573969
000060 c0 f4 c4 bb e7 99 ae bb 9f 5d c0 bb 78 96 d1 bb
       -0.006010622 -0.005328405 -0.0058705355 -0.006396111
000070 e2 3d e5 3b c3 c4 b3 bb 35 6e 80 3d a4 33 1b 3c
       0.0069959024 -0.0054861023 0.0627102 0.009472761
000080 71 1e b5 3c 75 e8 db 3c ed d1 40 bd 9b b3 d3 3d
       0.022109242 0.026844243 -0.0470752 0.103369914
000090 39 e0 f3 ba ae d3 e8 3c 4a 42 f3 3c e7 50 62 3d
       -0.0018606252 0.02842125 0.029694695 0.055252936
0000a0 33 b1 58 ba 15 f6 c8 bb 20 f8 f9 3b 29 b7 7e bb
       -0.0008266151 -0.006132851 0.0076284558 -0.0038866496
0000b0 16 9c e3 bb 99 a2 2e 3d 4d 80 c5 3d 86 67 0c 3d
       -0.006946097 0.042635534 0.09643612 0.034278415
0000c0 89 34 01 3e 92 3c b8 bb 30 3e ad bb 54 8f b5 bb
       0.12617697 -0.005622455 -0.0052869543 -0.0055407677
0000d0 a8 d1 2c 3b e3 36 06 3d 6a db 29 3d c2 25 81 3d
       0.0026370082 0.032767188 0.041469015 0.0630603
0000e0 32 99 a0 3c b4 38 35 3c a1 15 4f 3d c3 2a d4 3d
       0.0196043 0.011060882 0.050557736 0.10359719
0000f0 94 50 98 3d be 87 4e bc ae a7 42 3d bb 5d 24 3d
       0.07437244 -0.012605606 0.047523193 0.04012845
000100 b7 7a 87 3c 66 7c bf bb f4 e8 fa bb bc 2b a2 bb
       0.016538007 -0.005843687 -0.0076571647 -0.004949061
000110 0d b9 c1 3c dc 73 aa bc 80 84 87 3c 10 ec b1 bb
       0.02364781 -0.0208072 0.016542673 -0.005429752
000120 91 54 41 3c 2e c2 5d bb 7b cb 18 bd 38 40 bb bb
       0.011799947 -0.0033837664 -0.03730343 -0.0057144426
000130 e2 ad 40 3b 6e 18 0d bc 50 42 c0 3b 3c 5f 97 3d
       0.0029400517 -0.0086117815 0.00586728 0.073912114
000140 6e 10 55 bc 2b fd a0 bb b9 94 d6 bb e6 bc 67 3c
       -0.013004405 -0.0049129925 -0.006548491 0.014144158
000150 4a 09 05 bd 49 3f a8 3c 1e 31 c8 bb c1 49 bd 3d
       -0.032479562 0.02053799 -0.006109371 0.09242583
000160 4b 2a 06 3d 1e 3c 6e 3c 38 8c 3f 3d 0b a9 53 3d
       0.032755177 0.0145407 0.046764582 0.051674884
000170 2b 3c 88 3c 30 f1 1f bc 58 5b a8 bb af 51 d0 bb
       0.016630253 -0.009762093 -0.005137842 -0.0063573937
000180 19 15 c4 bb 41 b6 bc 3c 94 68 77 bb 2d fa 6b bb
       -0.0059839603 0.023036124 -0.0037751542 -0.003600727
000190 be 26 e4 3b 4d a3 c7 bc 6c 84 31 bc ae 2e c5 bb
       0.0069626262 -0.02436986 -0.0108347945 -0.0060175275
0001a0 d9 5c 28 3d 86 6e af bb c2 c2 cd bc b5 04 c5 3d
       0.04110417 -0.0053537516 -0.025117282 0.096200384
0001b0 29 56 b4 bb 77 98 d7 3c da 13 6c bb da 50 8a bd
       -0.005503435 0.026317818 -0.0036022575 -0.067537025

conv1.lin.weight f4 [112, 1792]
000000 8b 43 4b bd ea 0f 47 3d 5d 23 c9 3b 57 d3 24 bd
       -0.04962496 0.04859916 0.006138249 -0.040240612
000010 ae d3 26 3d 22 cb b1 bc ed 24 84 bd e5 e7 47 bc
       0.040729217 -0.021703307 -0.064523555 -0.012201284
000020 f4 cb 0c 3d ff be 89 3b 8b d8 1e 3d 8c b2 3b b9
       0.034374192 0.0042036767 0.03878073 -0.00017900224
000030 49 74 47 3b d1 d7 33 3d 99 aa eb 3d 70 22 0b 3e
       0.0030434302 0.04390699 0.11507148 0.13587356
000040 f3 4a 0b bc d4 1c 06 bc 55 7e 3a 3d 3a c8 15 3c
       -0.008501756 -0.008185584 0.045530636 0.009141976
000050 ed da 1d 3d 1f 3e 3b 3c b5 d1 b1 bb 38 59 80 3d
       0.038538862 0.011428385 -0.0054266104 0.06267017
000060 f3 a4 b4 3c ed c7 46 3c 6a 83 3a bc e2 81 52 bd
       0.02205131 0.012132627 -0.011383871 -0.051393397
000070 bb 8a 0b 3d 03 aa ea 3c 0c 27 88 bd ed 8a 69 3d
       0.03406785 0.028645521 -0.066480726 0.057017256
000080 b5 11 3a 3d 44 20 84 3c 46 d2 21 3d b6 69 1d be
       0.045427043 0.016128667 0.039507173 -0.15372357
000090 91 28 9d bc a5 99 40 3e 30 48 4b bd b6 83 63 bd
       -0.019184383 0.1880861 -0.04962939 -0.05554553
0000a0 f6 18 53 3d 41 a4 35 bc 3b 1c d3 3d 23 66 35 3d
       0.051537476 -0.011086524 0.10308119 0.04428686
0000b0 70 3b 14 3d be 52 33 bd 36 8b 02 3e 04 e4 09 bd
       0.036189497 -0.04378008 0.12748417 -0.03366472
0000c0 a9 e3 8f 3b eb 3a 64 3d 78 16 21 3c d8 bb 2d bd
       0.004391153 0.05572025 0.009832017 -0.04241547
0000d0 53 cf 2c bc 6d 10 c3 3c 48 69 42 bd 22 14 de bb
       -0.010547477 0.023811543 -0.047463685 -0.0067773024
0000e0 1e 72 f2 3b 3c f8 2c 3e 62 71 2a bd 50 e4 c5 bc
       0.0073988577 0.16891569 -0.041612037 -0.02415672
0000f0 5b c1 5d 3d 08 73 90 3d 0a 7f 9c bd 59 0a 0f bd
       0.054139476 0.070531905 -0.07641418 -0.034921978
000100 40 64 b0 3d 12 ed 3e 3c 46 32 22 3d 1e a8 33 3d
       0.08612871 0.011653202 0.039598726 0.0438615
000110 d2 58 f7 bd a1 80 59 bd da e6 f3 3c ea e9 67 bb
       -0.12077488 -0.053101186 0.029773165 -0.0035387226
000120 ee 28 1d bd 3b 9e db 3c 3f 40 32 bd c5 27 b7 3c
       -0.03836911 0.026808849 -0.0435183 0.02235783
000130 13 43 a0 bc ea e4 4a bc 18 22 96 bc 2e 55 58 bd
       -0.019563233 -0.012383679 -0.018326804 -0.05281561
000140 8f 90 a1 3d ee 2f 09 3d 85 21 33 3d e0 17 87 3e
       0.078889005 0.033492975 0.04373314 0.26385403
000150 87 19 ce 3c 7b 2c ba 3d 72 0d cb bb 96 9d 07 3c
       0.025158657 0.09090515 -0.006196671 0.0082773175
000160 2b f1 ad 3b fd 24 2e bd cf 0a 68 3d d2 9e 33 bd
       0.0053082905 -0.042515744 0.056650933 -0.043852635
000170 bf aa b5 3c 38 a8 e5 bd 4f 87 4b 3c c5 fb 8e bd
       0.022176145 -0.11213726 0.012422397 -0.06981615
000180 38 40 46 3d 1e 35 af 3d 6a 17 09 ba c5 87 5e 3d
       0.048401088 0.08555053 -0.0005229624 0.0543287
000190 c4 da 71 39 bb 46 b1 bc b7 1e 42 bd 29 c2 f1 3c
       0.00023065048 -0.021640172 -0.047392573 0.029511528
0001a0 ff a6 2a 3d 60 65 d4 3c 1a 12 94 bd 3d 3e 46 bd
       0.041663166 0.025927246 -0.07230015 -0.0483992
0001b0 aa 4b 68 3d 74 6a 67 3d 07 34 63 3b 36 40 1f be
       0.056712784 0.056498006 0.0034668462 -0.15551838
0001c0 bf e3 50 b8 df 0f ce bd ec 20 7a 3c c9 78 7d 3c
       -4.980317e-05 -0.10061621 0.015266638 0.015470692
0001d0 48 e9 59 bd 07 c3 73 3d 14 d7 da 3d dc a5 41 3b
       -0.05320099 0.059512164 0.10685554 0.0029548323
0001e0 80 1c 2b 3d 27 65 10 3d 29 45 af bc 94 c7 82 3d
       0.041775227 0.035252716 -0.021395283 0.06385723
0001f0 4b e5 89 3c c1 f9 5e 3c fa 98 ad bd 2e 60 41 3d
       0.016832968 0.013609351 -0.084764436 0.047210865
000200 5d 3d 02 3e 0e aa cb 3d ed ea 2d 3d 68 c7 5a bd
       0.1271872 0.09944545 0.04246037 -0.053412825
000210 05 50 01 bd b3 af df 3c b6 f7 15 bd 53 af f7 3c
       -0.031570453 0.02730546 -0.03661319 0.030234968
000220 89 b6 4e 3d 62 2a a1 3c ee 5e 6c 3c 96 77 3b 3d
       0.050467048 0.01967353 0.01442693 0.045768343
000230 94 04 d6 bc f2 b9 1a bd 10 84 4d bd 3e a7 8e 3d
       -0.02612523 -0.037774988 -0.050174773 0.06965493
000240 5c 98 af 3c e9 4c 87 bd 99 12 11 3b e1 b0 8d 3c
       0.021434955 -0.06606466 0.002213633 0.017296256
000250 1b 1a 54 bd d4 86 8e bc 71 bb bd bc 63 d2 8e 3d
       -0.05178271 -0.017398275 -0.023160668 0.06973722
000260 84 3c 17 3d ef 9a ea bc 8b b2 b3 3b 7b 8e 3b 3d
       0.036922947 -0.028638331 0.0054839305 0.045790177
000270 1d 46 76 3d a4 cb b6 3d 14 05 ed bc 76 6b 42 3d
       0.06012546 0.0892556 -0.028933086 0.047465764
000280 f8 58 0d bd f0 01 4c bd 09 25 ad 3c 2f 0d b9 3c
       -0.034508675 -0.049806535 0.021135824 0.022589294
000290 3e f0 4e 3d eb b2 0b bd 63 1d 69 3d 8a ee d6 3c
       0.05052208 -0.034106176 0.05691279 0.026236791
0002a0 38 6e a5 bc 24 aa 8b bc d7 87 3d 3d 59 32 76 3d
       -0.020194158 -0.017048903 0.046272125 0.06010661
0002b0 69 1e 05 bd 33 92 d4 ba a9 b5 f4 3c c0 d9 71 3d
       -0.032499705 -0.0016217887 0.029871779 0.059045553
0002c0 6f a2 ba bc 24 7d b7 bc a4 cb 5a 3d 50 58 f8 3c
       -0.022782532 -0.022398539 0.053416863 0.030315548
0002d0 56 d9 9f 3c b1 a0 62 bc da d5 3e 3c a7 f6 44 3c
       0.019512814 -0.013832257 0.011647666 0.012021697
0002e0 c0 51 91 bc fe 2c 8c bd 58 9b 56 3d 4f fe 66 3e
       -0.017739177 -0.06844519 0.05239424 0.22557949
0002f0 d0 6e 11 bd 27 87 bf 3c 67 34 e9 3c 27 e4 6a 3c
       -0.03550607 0.023379875 0.02846737 0.014336622
000300 99 31 07 3d e4 50 03 bd 99 b4 a3 3d 6c 11 2f bb
       0.033006284 -0.032059565 0.07993431 -0.0026713265
000310 9c c4 38 3c 39 4e 68 3d 01 98 8d 3c a8 d8 df 3d
       0.011277344 0.056715224 0.017284395 0.10929996
000320 83 36 c1 bc b4 68 63 bd e6 4c f5 3b f1 da 1b bd
       -0.023585564 -0.055519775 0.0074859736 -0.038050596
000330 1b 2d 8b bd c0 2a 76 38 51 00 64 bd a1 ae 0a 3e
       -0.067957126 5.8690784e-05 -0.055664364 0.13543178
000340 27 f7 f1 bb 35 ac 8e bc 54 ae 46 bd a7 ec 24 3d
       -0.007384199 -0.0174161 -0.048506096 0.04026475
000350 99 12 ab 3b 51 e8 44 3d af 6d da bd 22 0e 2b bd
       0.005220723 0.048073117 -0.10665452 -0.041761525
000360 f4 2a 86 3d 61 e0 c5 3b d3 86 b2 bc dc 83 06 bd
       0.065511614 0.006038711 -0.021792805 -0.032840595
000370 4a 9b 26 bd 6c 87 0c bd 78 fc 10 be 13 df 66 3c
       -0.04067544 -0.034308836 -0.14158809 0.014091271
000380 f8 f7 2b bd 49 23 90 bd 55 c3 be bc 2a 52 2c be
       -0.04198453 -0.0703798 -0.023286501 -0.16828218
000390 f3 c3 c5 bc 61 8c d2 3c 23 37 ee bc 51 20 0f bd
       -0.024141287 0.025701704 -0.029079026 -0.03494293
0003a0 0d 54 eb bb 6b 58 8d 3d 1c 68 20 bd 99 82 36 3d
       -0.0071816505 0.0690163 -0.039161786 0.04455814
0003b0 b5 1c d0 bc 5c 81 84 3d 1a 65 64 3c 64 38 f8 3a
       -0.025404314 0.06469986 0.01394012 0.0018937704
0003c0 ca 03 99 3c 2e 87 75 3d b4 0c e6 bd ed f0 55 bd
       0.018678565 0.05994337 -0.11232892 -0.052231718
0003d0 93 d8 96 bd 24 cf 58 bc a4 73 29 bd 9e 29 12 3b
       -0.07365527 -0.01323298 -0.04137005 0.0022302638
0003e0 64 88 97 bd 17 f1 2f 3c 56 1b 5b 3d f1 26 c5 ba
       -0.07399061 0.010738633 0.053492866 -0.0015041513
0003f0 7e eb 21 3d dc d8 db bb 8c a6 95 bd 2c e1 9e 3d
       0.039531223 -0.0067092013 -0.07307157 0.07757792

conv2.bias f4 [28]
000000 79 e1 ce bc e0 07 d0 3c 2e dc cb ba 2a 4b 8d bc
       -0.025253998 0.02539438 -0.001555329 -0.017247755
000010 29 32 38 bd b2 04 0f bc 0d f8 7e bd 3f e7 34 bd
       -0.04496971 -0.008729147 -0.06224828 -0.044165846
000020 a1 02 03 3c 46 c6 34 3d d0 f0 aa bc 0c ba e0 39
       0.007996232 0.0441344 -0.020866781 0.00042863225
000030 99 9f e5 ba 27 02 7f bd d9 30 36 bd 13 7e 0e 3c
       -0.0017518877 -0.062257912 -0.04448018 0.008697051
000040 9a 2c 12 3b 07 6b c0 3c f3 06 31 3c db 3f 2c 3d
       0.0022304417 0.023488535 0.0108048795 0.042053085
000050 b6 1d 44 3d 4f e7 20 3d b8 27 ff 3c 51 f4 b4 3d
       0.047879897 0.039283093 0.031146869 0.08835662
000060 32 af 3e bc 59 79 16 bd 96 8e a6 3d 42 7c 7c 3c
       -0.0116384495 -0.03673682 0.08132665 0.015410485

conv2.lin.weight f4 [28, 112]
000000 bc 80 b9 bd 50 4f 7f 3e 89 15 1a 3e b1 80 ff bd
       -0.09057757 0.24932599 0.15047278 -0.12475718
000010 88 6b 29 be f2 47 d1 bd e1 a4 ac bc cc 5f 35 3d
       -0.16544926 -0.102188006 -0.021074714 0.044280812
000020 b0 7c f1 3d 87 14 02 be 1d 28 89 3d 01 7e 97 be
       0.117913604 -0.12703143 0.06697104 -0.2958832
000030 30 04 3f 3e b3 0c d3 3d 2c d1 26 3e aa 3c 47 3e
       0.18653941 0.103051566 0.1629073 0.19456735
000040 8d 40 28 3e 55 f5 2a be c1 d8 8d 3e 16 a3 35 3d
       0.16430874 -0.16695149 0.27704433 0.044344984
000050 09 0d 85 be da 96 0d bd 24 b0 26 be 4b a1 b3 3c
       -0.25986508 -0.03456769 -0.1627813 0.021927496
000060 4d 2f 05 3e 74 33 0d be 35 dc eb 3d e5 35 24 3e
       0.13006325 -0.13789159 0.115166105 0.16036184
000070 93 a0 f0 3d 72 2f 38 3d b5 22 98 bd bb 91 a6 3d
       0.11749377 0.044967122 -0.07428495 0.08133265
000080 5a 07 a8 3d 9f 7e 02 be 36 5b ef 3d 77 a7 5f be
       0.08204527 -0.12743615 0.11687319 -0.21841227
000090 c4 e9 a9 3d 06 d8 7b 3e 81 f2 74 3d 13 79 0a be
       0.082965404 0.24594125 0.059801582 -0.13522749
0000a0 e0 e1 f9 bd 51 6c bf bd e2 7a 1c 3c 79 c5 14 3e
       -0.12201285 -0.093468316 0.009550782 0.14528455
0000b0 11 f9 75 3d 19 88 d1 bd 48 69 87 3e 28 bf 42 be
       0.06005198 -0.10231037 0.2644751 -0.19018233
0000c0 ea 76 01 3e ed c0 3c 3d 46 06 d1 3d 9b 4d 81 bd
       0.12643018 0.046082426 0.10206275 -0.0631363
0000d0 28 aa f2 3d 01 2d 52 3e 0c 92 76 be fe df 8c 3e
       0.11848861 0.2052498 -0.2407915 0.27514642
0000e0 7b e4 e9 bd e5 64 3b be 46 1e 3d 3d e9 b3 28 3e
       -0.11420532 -0.18300207 0.04617145 0.1647488
0000f0 67 c2 27 3e cb 6d 8f 39 68 33 0d be 66 e5 de bd
       0.16382752 0.00027356888 -0.13789141 -0.10883598
000100 82 9c a0 be 6c 07 f4 3d e8 c0 2e be e1 a2 03 3c
       -0.31369406 0.11915478 -0.17065775 0.008034439
000110 ac cd dd 3d c3 87 3c 3e a2 9d 19 3c 0d cf 8a bd
       0.108302444 0.18411164 0.0093759615 -0.06777773
000120 46 e4 cd bd 4d 35 89 bd 0b cd 5c bd 03 93 25 be
       -0.10053305 -0.066996194 -0.05390648 -0.16169362
000130 9c b3 4d 3e d6 3b 4b bc 82 fb 62 3d 81 ab 9f 3e
       0.20088047 -0.012404403 0.055415638 0.31185535
000140 c4 46 cd 3d b1 e5 4b 3d a6 5d ad bc c8 47 4b be
       0.10023263 0.049779598 -0.02116282 -0.19851601
000150 d0 64 d3 bd 1a a9 48 bd 9d 73 2d 3e 5a 4e a1 be
       -0.10321963 -0.048989393 0.16938634 -0.3150509
000160 59 2f f0 bd 45 85 0c 3d 83 e6 74 3d b7 18 bb 3c
       -0.11727781 0.034306783 0.059790146 0.022838933
000170 45 a9 96 bd 21 49 1a be 7f 00 2a 3d e9 3e b4 bd
       -0.07356504 -0.15066959 0.04150438 -0.08801062
000180 6b 6e 05 bc 5d cc 78 bc 7f f6 3c bd f6 b9 44 3c
       -0.0081440015 -0.015185443 -0.046133514 0.012007227
000190 2c 98 89 be 2f f8 91 3d 61 e9 44 be 27 4a 33 bb
       -0.2687391 0.071274154 -0.19229652 -0.002735743
0001a0 f4 fd 03 3e cf bc 0a 3e 01 43 ee 3d 4c 26 0a be
       0.12889844 0.13548587 0.11633874 -0.13491172
0001b0 c6 d8 dd 3d 85 04 c6 3c 83 b2 10 3e 4b 7a b5 bd
       0.10832362 0.024172077 0.14130597 -0.08861216
0001c0 70 04 f8 bd 92 29 b3 be f3 20 66 3e 20 dd 22 3e
       -0.121102214 -0.34992653 0.22473507 0.15904665
0001d0 37 ab 5d be 28 7f ae bd 39 f3 3e be 78 a4 17 3e
       -0.21647345 -0.08520347 -0.1864747 0.14808834
0001e0 d0 99 81 bd d7 97 93 3d 4f 85 f8 bd 76 30 6e be
       -0.063281655 0.072066955 -0.121348016 -0.23260674
0001f0 59 1c af 3d f7 39 31 3e f4 c8 16 be 6a 85 43 3e
       0.08550329 0.17307268 -0.14725095 0.19093862
000200 4e c5 40 3d 9f 81 72 bd fc 72 fb 3d fa 1b aa 3d
       0.047063164 -0.059205648 0.12277791 0.08306117
000210 97 c9 b7 be 10 e8 42 3d 9f 8f 5f be 4b 3b 14 be
       -0.35895988 0.047584593 -0.21832131 -0.14475743
000220 56 d4 1e 3e 36 26 e7 bd f7 b8 49 be b1 ae 28 3e
       0.15510687 -0.11286585 -0.19699465 0.1647289
000230 18 db 71 3e 2e 1b 12 be 1f e0 3c 3d a9 a7 48 3d
       0.23618734 -0.1426818 0.046112176 0.04898802
000240 b8 0e a7 bd f7 5d ca bd 93 b9 19 be fc 8e 4c be
       -0.08157104 -0.098812036 -0.15012197 -0.19976419
000250 a3 dd 9e bd 42 c1 a9 3b 14 3d 4d 3d 0c 79 21 3e
       -0.077571176 0.005180509 0.050107077 0.15768832
000260 4a 84 48 be dc 16 ca 3d 59 4a fd 3d 8a 36 a4 bb
       -0.19581714 0.09867641 0.12367696 -0.0050113844
000270 ae 23 42 be 44 60 8e bd 02 c2 6e 3e 34 93 ce bc
       -0.18958923 -0.06951955 0.23316196 -0.025216676
000280 26 54 2c be 67 ec f4 ba 97 cf c1 3d 89 53 49 be
       -0.16828975 -0.0018686176 0.09463423 -0.19660772
000290 02 96 5f 3e 2f 4f 8f 3d b2 63 9c be 7d ca 4d 3d
       0.21834567 0.06997525 -0.3054481 0.050241936
0002a0 34 1c 5c be 99 5d cf bc 25 f3 9f be 87 66 49 be
       -0.21495134 -0.025313186 -0.31240192 -0.19668017
0002b0 44 98 1d 3e 9a c4 9f bd dd 2e b5 3d c9 e4 f9 3d
       0.15390116 -0.07801171 0.08846829 0.122018404
0002c0 f6 06 26 3e 3e a6 d7 bd 40 83 ca 3d b1 69 e3 bd
       0.16213593 -0.10529755 0.09888315 -0.111041434
0002d0 8a 69 21 3e 10 a6 a0 bb fd 4d 49 be 56 32 9d 3d
       0.15762916 -0.0049026087 -0.19658656 0.076756164
0002e0 45 67 e2 bd 55 2a 57 3d 58 28 8d 3e 71 c4 f7 3d
       -0.11054853 0.052530605 0.27569842 0.12098015
0002f0 c1 aa d8 3d 77 af b7 3d b6 ff 12 be 98 93 43 be
       0.10579444 0.08969014 -0.14355358 -0.19099271
000300 6f 70 aa bd 56 c6 0a be ad ee 6f 3d 4a 34 5a be
       -0.08322226 -0.13552222 0.05857723 -0.21309009
000310 ce 5a 13 3e 30 12 70 3e e9 be 00 3e 9d 4e 56 3e
       0.14390108 0.23444438 0.12572826 0.20928426
000320 be 9a d6 bc 8c d2 51 3e bb 85 73 3e 7a 39 63 3e
       -0.026196834 0.20490474 0.23781483 0.22189894
000330 67 44 47 be b9 dc e1 bd 87 ca 2a 3e b5 bf 20 be
       -0.19459687 -0.11028428 0.1667882 -0.1569813
000340 d1 93 18 3e 81 40 9b 3d ac 64 0c be 01 59 d0 3d
       0.14900137 0.075806625 -0.13710278 0.10173226
000350 55 d9 de bd aa b7 15 bd 73 2b f7 3c f2 6e 33 be
       -0.108812965 -0.03655211 0.030172085 -0.17522791
000360 35 da 46 be 46 61 4c bd b7 4f f8 3d 3d 7a e3 3d
       -0.19419177 -0.049897455 0.121245794 0.111072995
000370 7f b4 4c be cb 33 05 bd c9 53 12 3e ce ec 8c 3e
       -0.19990729 -0.032520097 0.14289774 0.27524418
000380 7f ca ee 3d 74 09 b6 3c 42 5d 57 be cc ba 46 be
       0.11659717 0.022221304 -0.21031669 -0.19407195
000390 87 e0 10 be 79 50 60 3e 9d aa d6 bd 0d 33 63 3e
       -0.1414815 0.21905698 -0.10481761 0.22187443
0003a0 d2 f7 5e bd e1 4b c4 3c 63 55 30 3d 2a db 85 3e
       -0.05443556 0.023961963 0.04305018 0.2614377
0003b0 df 39 2a be 08 8a a4 3d 21 62 85 be 27 7c 8c 3d
       -0.16623639 0.0803414 -0.2605143 0.06859618
0003c0 fa 0c 4c be 90 8a 44 be 49 23 86 be 15 4a 05 be
       -0.19926825 -0.19193482 -0.26198795 -0.13016541
0003d0 2d 4c a7 3e 5d 2c 56 bd 72 de 54 be 70 62 2e be
       0.32675305 -0.052288402 -0.20787981 -0.17029738
0003e0 a9 61 35 3e 6b 5c b4 bd a9 e4 46 be db cf cd bd
       0.17713036 -0.0880669 -0.19423164 -0.10049411
0003f0 35 67 04 be 97 11 71 bd a8 10 81 3e 3a 2d 50 3e
       -0.12929995 -0.058854666 0.2520802 0.20329753
